experiments/gan_modified_srgan/saved_models/discriminator_1.pth (torch_old, 427594 bytes, 45 tensors)

model.0.weight f4 [64, 3, 3, 3]
0.30356592 -0.14791915 0.21971948 -0.24360281 -0.21363771 0.088578254 -0.14403203 -0.3098925
0.30369216 0.23939884 0.14417799 0.022115039 -0.05769213 -0.17422947 -0.07725277 -0.20858963
-0.010072328 0.14529808 -0.040432386 -0.028968021 0.15767305 -0.2068418 0.08182283 0.11343034
-0.2963019 -0.29652038 0.3205696 0.015446165 -0.050691728 0.11982367 -0.040221922 -0.055727065
0.30387858 0.18780331 0.18243694 0.20570405 0.0980766 -0.04320784 -0.046078518 -0.15635349
0.026062446 0.02522741 0.17476049 0.049264345 0.056535915 -0.121883005 0.23892908 0.07786276
0.1783046 0.16826853 -0.043323245 0.08754017 -0.01598839 -0.0079305405 0.066783816 -0.026568629
-0.15273696 0.19580708 0.19327289 0.13253736 -0.096441805 0.13273646 -0.06597445 -0.07311353
-0.059357062 -0.09397509 0.011611825 -0.04539892 0.2290049 0.095783204 0.19827764 0.17951584
0.10016877 0.060211036 -0.1897205 0.13023409 -0.0018192991 -0.061676264 -0.034888573 0.052937925
0.112766474 -0.044099927 0.11770932 0.10550165 -0.19975628 -0.21896072 -0.16856228 0.13929145
0.4106575 -0.15818965 0.17985426 -0.0056570307 0.25534025 0.06603653 -0.12980866 -0.17527185
-0.23776719 0.2880106 -0.097154126 -0.17061822 0.23725048 -0.14135164 -0.1539668 0.049257208
-0.2398685 0.054600798 0.3166708 -0.014148822 0.19610655 0.1528068 -0.21568234 0.23341759
0.14820628 0.0015326634 -0.30301464 -0.03652585 0.06790039 -0.05682139 -0.21115823 -0.16723038
0.013501511 0.13685514 -0.056305703 -0.077198416 0.10730068 -0.049216755 0.19073811 -0.13677943
-0.11109027 0.23072161 0.07402548 0.17437308 -0.34813008 -0.06781616 0.025215283 0.120966025
0.030247176 -0.06531367 0.17210728 0.3860765 0.36668214 -0.37464008 -0.24741282 -0.28134918
0.14726032 -0.38551345 -0.17120026 0.047641438 0.39796028 0.28008792 -0.18294959 0.017401854
-0.14544836 0.13711767 -0.21547143 -0.066130646 0.2396455 0.19625233 0.2535546 -0.37657323
-0.21494669 -0.14587542 0.014193393 0.0029503366 -0.05080323 -0.044829406 0.25185698 0.23071606
-0.11681895 -0.110853754 0.15897675 0.082222566 -0.008185136 -0.20005831 0.043341808 0.034463603
0.122695155 -0.16824229 -0.14980471 0.004122322 0.16765678 -0.12896214 -0.10332874 0.121364005
0.20074981 -0.004615863 -0.23734303 0.011916221 0.112242855 0.15105231 0.10092406 -0.028698316
-0.07702737 -0.2453565 -0.0639597 -0.1085643 0.0049920413 0.19446278 0.16630034 -0.12741028
0.14501628 -0.15670168 -0.23721832 -0.19890846 -0.10652286 -0.1418275 0.065421954 -0.2636268
0.053246558 0.073720165 -0.14492127 -0.084355496 -0.092201255 -0.109486505 0.008624396 0.04392015
-0.10466542 -0.22116527 0.10713701 0.07868887 -0.19086601 0.030753046 0.1881673 -0.15581167
0.3185933 0.03866794 -0.044912428 0.11445084 0.092095286 -0.30084822 0.046243057 0.17787983
-0.033086784 -0.047714982 0.17225908 0.0141525995 0.295988 -0.081681356 -0.3336069 -0.061395176
0.01741601 -0.29219624 0.094857246 0.08286396 0.2954005 0.12575002 0.045623984 0.06710044
-0.1152808 -0.19703548 -0.32632166 -0.26565802 -0.13927865 -0.08971545 0.04792179 0.18758388
00000000: fe6c 9b3e 1e78 17be 25fe 603e 0473 79be
00000010: d8c3 5abe 8468 b53d 227d 13be 3baa 9ebe
00000020: 8a7d 9b3e f824 753e 65a3 133e 992a b53c
00000030: 954e 6cbd 3669 32be b336 9ebd 8598 55be
00000040: 6806 25bc 05c9 143e 6e9c 25bd 584e edbc
00000050: 0b75 213e 56ce 53be ba92 a73d 2b4e e83d
00000060: e2b4 97be 85d1 97be b321 a43e e911 7d3c
00000070: 21a2 4fbd 1d66 f53d bebf 24bd 1042 64bd
00000080: f995 9b3e 834f 403e c0d0 3a3e 15a4 523e
00000090: 62dc c83d b4fa 30bd d4bc 3cbd 211b 20be
000000a0: e980 d53c b7a9 ce3c 6af4 323e 69c9 493d
000000b0: 3492 673d cc9d f9bd d3a9 743e 8376 9f3d
000000c0: 7b95 363e 964e 2c3e b773 31bd 4348 b33d
000000d0: 16fa 82bc 19ef 01bc f4c5 883d 74a6 d9bc
000000e0: 1467 1cbe a781 483e 54e9 453e e0b7 073e
000000f0: 4883 c5bd 11ec 073e 9d1d 87bd 8cbc 95bd
00000100: 6420 73bd 0376 c0bd 863f 3e3c 38f4 39bd
00000110: 4380 6a3e fc29 c43d 4b09 4b3e 00d3 373e
00000120: 4925 cd3d d99f 763d 1746 42be 165c 053e
00000130: 8c75 eeba 40a0 7cbd 52e7 0ebd 70d5 583d
00000140: 1cf2 e63d 20a2 34bd 9511 f13d 4011 d83d
00000150: e98c 4cbe 3d37 60be 979b 2cbe 6ba2 0e3e
00000160: b341 d23e 78fc 21be b72b 383e 9d5e b9bb
00000170: f5bb 823e 293e 873d 90ec 04be 777a 33be
00000180: 3e79 73be 2076 933e bef8 c6bd 8bb6 2ebe
00000190: caf1 723e 7cbe 10be 79a9 1dbe edc1 493d
000001a0: 17a0 75be 16a5 5f3d ad22 a23e 76d0 67bc
000001b0: 28d0 483e 6379 1c3e d5db 5cbe 0505 6f3e
000001c0: 63c3 173e a6e3 c83a bc24 9bbe 219c 15bd
000001d0: 5c0f 8b3d 8cbd 68bd dd39 58be 713e 2bbe
000001e0: 7135 5d3c c123 0c3e cfa0 66bd 341a 9ebd
000001f0: 75c0 db3d 8297 49bd da50 433e e80f 0cbe
00000200: 4c83 e3bd 4942 6c3e ac9a 973d db8e 323e
00000210: 1b3e b2be 33e3 8abd 4890 ce3c 09bd f73d
00000220: edc8 f73c 2cc3 85bd e43c 303e d2ab c53e
00000230: c3bd bb3e d3d0 bfbe c959 7dbe 000d 90be
00000240: 69cb 163e 0562 c5be 1f4f 2fbe ab23 433d
00000250: 73c1 cb3e af67 8f3e 2357 3bbe 558e 8e3c
00000260: 6af0 14be 9368 0c3e 8ba4 5cbe 816f 87bd
00000270: a165 753e 5ff6 483e e9d1 813e 35ce c0be
00000280: fc1a 5cbe 5e60 15be 688b 683c 6f5a 413b
00000290: 0c17 50bd 0a9f 37bd 66f3 803e d540 6c3e
000002a0: c63e efbd 4b07 e3bd cdca 223e 4e64 a83d
000002b0: f31a 06bc 16dc 4cbe 2e87 313d b529 0d3d
000002c0: 9947 fb3d b547 2cbe 6866 19be 8b14 873b
000002d0: 38ae 2b3e a70e 04be 059e d3bd b18d f83d
000002e0: 5c91 4d3e aa40 97bb 0d0a 73be 413c 433c
000002f0: 95df e53d 75ad 1a3e 46b1 ce3d bb18 ebbc
00000300: 87c0 9dbd bc3e 7bbe 4efd 82bd f656 debd
00000310: 4794 a33b 4021 473e a34a 2a3e d777 02be
00000320: 267f 143e 6876 20be 5ce9 72be a9ae 4bbe
00000330: a828 dabd 3a3b 11be f2fb 853d 18fa 86be
00000340: 1019 5a3d 99fa 963d 3e66 14be 93c2 acbd
00000350: 03d4 bcbd 763a e0bd 574d 0d3c 9de5 333d
00000360: d35a d6bd 2679 62be a66a db3d a127 a13d
00000370: 6172 43be d0ed fb3c eeae 403e 188d 1fbe
00000380: a91e a33e 4662 1e3d 18f6 37bd 3465 ea3d
00000390: 749c bc3d c708 9abe 5c69 3d3d 2126 363e
000003a0: 0286 07bd c970 43bd af64 303e 4ee0 673c
000003b0: bd8b 973e 8e48 a7bd 86ce aabe 8279 7bbd
000003c0: 05ac 8e3c bf9a 95be 8444 c23d 94b4 a93d
000003d0: bc3e 973e 9dc4 003e 37e0 3a3d f56b 893d
000003e0: 5718 ecbd abc3 49be a213 a7be 5404 88be
000003f0: 109f 0ebe bcbc b7bd a449 443d fd15 403e

model.0.bias f4 [64]
0.024096884 -0.7754482 -0.015611999 -0.37927952 -0.25071046 -0.35703632 -0.32418188 -0.57624143
-0.25093877 0.16566741 -0.35171452 -0.41469005 0.24829067 -0.19952694 -0.27026677 -0.17740962
-0.20622878 -0.1876843 -0.3130584 -0.18040732 0.14804983 -0.35581973 -0.6098709 -0.15270394
-0.32699367 -0.40466297 -0.03182329 -0.21894349 -0.45515138 -0.09856459 -0.15299872 -0.35182986
-0.013403944 -0.41985556 -0.34530118 -0.28281683 -0.109198846 -0.18981767 -0.34166962 -0.2918066
-0.13396974 -0.12183617 -0.5197022 0.0066917446 0.3951423 -0.4387244 -0.1432183 -0.34231582
-0.0725586 -0.39332926 -0.37646747 -0.2174969 -0.17143665 -0.32254264 -0.25255725 -0.18242627
-0.019282516 0.0854164 -0.3218894 -0.12979242 0.018010192 -0.2835435 -0.25301278 -0.28658077
00000000: d466 c53c c683 46bf 78c9 7fbc ed30 c2be
00000010: 1f5d 80be 77cd b6be 2bfb a5be 8f84 13bf
00000020: 0c7b 80be b8a4 293e ed13 b4be 4152 d4be
00000030: e93f 7e3e ca50 4cbe 6860 8abe deaa 35be
00000040: a32d 53be 5030 40be 3149 a0be b2bc 38be
00000050: 609a 173e 012e b6be 8020 1cbf 6c5e 1cbe
00000060: b76b a7be fc2f cfbe 2359 02bd b932 60be
00000070: 9a09 e9be 3bdc c9bd b2ab 1cbe 0b23 b4be
00000080: 379c 5bbc 4ff7 d6be 51cb b0be 5ecd 90be
00000090: a5a3 dfbd 905f 42be 52ef aebe ad67 95be
000000a0: 5d2f 09be 3e85 f9bd 340b 05bf 6c46 db3b
000000b0: 1750 ca3e 7ca0 e0be d1a7 12be 0544 afbe
000000c0: 9a99 94bd 7462 c9be 58c0 c0be 82b7 5ebe
000000d0: 178d 2fbe 4f24 a5be 2f4f 81be f4cd 3abe
000000e0: 5ef6 9dbc cbee ae3d b0ce a4be 4ee8 04be
000000f0: 1c8a 933c 9d2c 91be e48a 81be b7ba 92be

model.2.weight f4 [64, 64, 3, 3]
0.10966501 0.14815538 0.13816947 0.22296987 0.2063005 0.21379542 0.12627876 0.09475453
0.07877183 -0.008089385 -0.0096454015 -0.0073563927 0.024558723 0.023015732 0.00906607 0.020887949
0.0030134553 -0.0013909346 0.012588562 0.02032023 0.006193146 -0.118419655 -0.10101105 -0.09168443
-0.036350694 -0.0864443 -0.022310894 -0.13208945 -0.07282564 -0.026903138 0.38930666 0.39614826
0.3688308 0.13676146 0.15569021 0.15234905 -0.016308643 0.036603253 0.08690309 -0.18295434
-0.17142388 -0.20232359 -0.010164274 -0.038673613 -0.0462963 -0.020905338 -0.04872156 0.011320111
-0.48442206 -0.4589357 -0.39902356 -0.40150455 -0.42769206 -0.40743044 -0.017217394 -0.010338149
-0.039527204 -0.14393522 -0.14183775 -0.1866837 -0.100225545 -0.18514621 -0.12319959 -0.09676986
-0.12673202 -0.0796477 0.16724402 0.1335243 0.16535158 0.008807109 4.3302847e-05 -0.036564097
0.0021282756 -0.0011586847 -0.025748769 0.20951168 0.13546172 0.15571916 0.07679223 0.07027515
0.049181215 0.2498555 0.21689674 0.22462094 -0.017949907 -0.038021687 -0.021825325 -0.10275005
-0.14406423 -0.11965089 0.2881341 0.23801185 0.27964446 -0.1757253 -0.14964046 -0.1274604
-0.122657955 -0.08882877 -0.09701724 -0.15839466 -0.12286341 -0.09327694 -0.08932567 -0.12786724
-0.11842279 -0.07623583 -0.11224903 -0.05774639 0.22854564 0.2778827 0.19874184 0.13027307
0.11816761 0.1574918 -0.08818146 -0.05147313 0.01265211 0.09111234 0.098255605 0.0702639
-0.08101902 -0.016495906 0.0077732718 0.23081334 0.23752467 0.25981113 0.46246943 0.45531544
0.45470792 -0.20861162 -0.24438292 -0.20450874 -0.086486265 -0.12525333 -0.06385674 0.26127526
0.2242496 0.20355631 -0.089393936 -0.10071579 -0.100474454 -0.07316889 -0.1288677 -0.12504011
0.01055428 -0.007943969 -0.011792547 0.14485605 0.13720553 0.06988187 0.020478258 -0.010186668
0.023423439 -0.054555792 -0.056228615 -0.016059648 -0.049886223 -0.048945114 -0.049669873 -0.09160472
-0.028087204 -0.020659667 0.1564109 0.17856704 0.16991861 0.065462306 -0.013009956 0.02000367
0.044873048 0.0045722066 -0.050467912 -0.1061922 -0.110618345 -0.1790718 -0.03184498 -0.02894244
-0.045119077 -0.21477589 -0.21160945 -0.21515201 -0.047372658 -0.0625697 -0.101964585 0.12815362
0.12062676 0.10033421 -0.12981132 -0.17188679 -0.12982164 0.007038863 -0.0026650906 -0.010543416
-0.18259977 -0.2521294 -0.20903486 -0.16475664 -0.17648777 -0.16460009 -0.030323615 -0.060708385
-0.08321868 -0.0119423745 -0.02046485 0.038783304 0.050954524 0.03432205 -0.009349963 -0.001638795
-0.0026252158 0.0074667064 -0.045731016 -0.046367053 -0.022614585 -0.05018437 -0.030290052 -0.075718455
0.38012564 0.39475915 0.32787833 -0.28554156 -0.2560344 -0.2768669 -0.07805955 -0.07869195
-0.08026592 -0.0581864 -0.015336048 -0.05784844 -0.14318137 -0.086558856 -0.14051662 -0.12060706
-0.056238383 -0.08630923 0.3932241 0.4341306 0.4107887 -0.15885644 -0.17898148 -0.18160385
-0.0086507015 0.0111003285 0.012136618 -0.18067567 -0.22691993 -0.124876335 -0.16024925 -0.19166684
-0.0887844 -0.17365764 -0.17358223 -0.18713614 -0.020126069 -0.008142763 -0.010828084 -0.09027215
00000000: 0c98 e03d 0bb6 173e 4c7c 0d3e 3752 643e
00000010: 7040 533e 30ed 5a3e 384f 013e aa0e c23d
00000020: 2053 a13d 5789 04bc bf07 1ebc e50d f1bb
00000030: 602f c93c 7d8b bc3c db89 143c 341d ab3c
00000040: 647d 453b 0550 b6ba 4240 4e3c 9c76 a63c
00000050: e0ef ca3b 0186 f2bd e2de cebd 0cc5 bbbd
00000060: 77e4 14bd b609 b1bd 56c5 b6bc 7542 07be
00000070: 9c25 95bd f863 dcbc 3453 c73e f2d3 ca3e
00000080: 64d7 bc3e 320b 0c3e 416d 1f3e 6401 1c3e
00000090: b499 85bc 4bed 153d 3ffa b13d 6258 3bbe
000000a0: be89 2fbe ea2d 4fbe 0e88 26bc 3968 1ebd
000000b0: 30a1 3dbd ac41 abbc 4290 47bd fd77 393c
000000c0: 2b06 f8be 9ff9 eabe d14c ccbe 0192 cdbe
000000d0: 74fa dabe b99a d0be 7e0b 8dbc 5761 29bc
000000e0: 47e7 21bd c163 13be ea3d 11be 032a 3fbe
000000f0: 0d43 cdbd f896 3dbe 1150 fcbd 472f c6bd
00000100: 0ac6 01be 551e a3bd 0442 2b3e 98ba 083e
00000110: ed51 293e b14b 103c 14a0 3538 3cc4 15bd
00000120: 8a7a 0b3b 02df 97ba 15ef d2bc 3b8a 563e
00000130: 7ab6 0a3e d874 1f3e 3f45 9d3d 6bec 8f3d
00000140: 3e72 493d 1fda 7f3e 2e1a 5e3e 0803 663e
00000150: af0b 93bc a1bc 1bbd 06cb b2bc 9e6e d2bd
00000160: 9385 13be 870b f5bd 5086 933e 61b9 733e
00000170: 8f2d 8f3e 55f1 33be 593b 19be fb84 02be
00000180: 1834 fbbd dceb b5bd fab0 c6bd 3632 22be
00000190: d09f fbbd fb07 bfbd 60f0 b6bd a1ef 02be
000001a0: a687 f2bd 8821 9cbd d2e2 e5bd 7b87 6cbd
000001b0: de07 6a3e a446 8e3e fb82 4b3e 4e66 053e
000001c0: dc01 f23d 8845 213e 7b98 b4bd 7dd5 52bd
000001d0: cc4a 4f3c 1b99 ba3d 3c3a c93d 85e6 8f3d
000001e0: 4ded a5bd 6c22 87bc eeb6 fe3b 555a 6c3e
000001f0: ab39 733e f705 853e cbc8 ec3e 1b1f e93e
00000200: 7acf e83e 499e 55be 843f 7abe bd6a 51be
00000210: b61f b1bd 6942 00be 53c7 82bd dfc5 853e
00000220: b0a1 653e 1171 503e 2b14 b7bd 1544 cebd
00000230: 8dc5 cdbd 92d9 95bd e5f5 03be 840a 00be
00000240: dceb 2c3c 6c27 02bc 8735 41bc 2555 143e
00000250: 9b7f 0c3e 3a1e 8f3d 05c2 a73c fbe5 26bc
00000260: 83e2 bf3c e575 5fbd fa4f 66bd 868f 83bc
00000270: 7f55 4cbd ac7a 48bd a372 4bbd 419b bbbd
00000280: 2317 e6bc 763e a9bc 2e2a 203e 47da 363e
00000290: 25ff 2d3e 1a11 863d b627 55bc bdde a33c
000002a0: cdcc 373d 73d2 953b 71b7 4ebd 4c7b d9bd
000002b0: df8b e2bd 995e 37be e26f 02bd b218 edbc
000002c0: c8ce 38bd 36ee 5bbe 26b0 58be cf50 5cbe
000002d0: d509 42bd 8b24 80bd cfd2 d0bd b43a 033e
000002e0: 2a0b f73d 067c cd3d 42ed 04be 1703 30be
000002f0: f7ef 04be 43a6 e63b cda8 2ebb 4bbe 2cbc
00000300: 6ffb 3abe 1b17 81be 3c0d 56be f7b5 28be
00000310: 36b9 34be ed8c 28be 3b69 f8bc 5ba9 78bd
00000320: 8e6e aabd f3a9 43bc e7a5 a7bc 3edb 1e3d
00000330: b1b5 503d 4795 0c3d 9630 19bc d6cc d6ba
00000340: d00b 2cbb 46ab f43b 7250 3bbd 61eb 3dbd
00000350: 3942 b9bc 208e 4dbd d822 f8bc 4712 9bbd
00000360: d49f c23e df1d ca3e abdf a73e 8132 92be
00000370: f116 83be 80c1 8dbe afdd 9fbd 3f29 a1bd
00000380: 7562 a4bd dd54 6ebd 0c44 7bbc 7cf2 6cbd
00000390: 239e 12be c545 b1bd 97e3 0fbe d600 f7bd
000003a0: 385a 66bd e5c2 b0bd ab54 c93e 5e46 de3e
000003b0: e652 d23e 43ab 22be ec46 37be 5cf6 39be
000003c0: acbb 0dbc 27de 353c aad8 463c 0b03 39be
000003d0: b35d 68be 2abf ffbd 6118 24be 5044 44be
000003e0: 98d4 b5bd 4fd3 31be 8abf 31be 9ea0 3fbe
000003f0: 6ddf a4bc 3969 05bc 4768 31bc 9be0 b8bd

model.2.bias f4 [64]
0.022504654 0.03772905 0.0013819926 -0.024646744 -0.0062160934 0.033080272 0.0050100265 -0.026213106
-0.010985317 -0.025587725 0.03566067 -0.022324301 0.07183242 -0.008166387 -0.009370219 -0.018409679
0.0037806488 -0.013034159 0.0053252596 0.02308966 0.014939425 0.02939714 -0.021043075 0.033467375
-0.016309045 0.009789327 -0.024170795 -0.0074864887 -0.01875234 0.0010995488 0.061757363 -0.017219316
-0.024733499 -0.001870847 0.0043426543 -0.040705565 0.014049361 0.0047562956 0.038071174 -0.009424372
0.017912598 0.03555126 0.036307864 0.040547382 -0.027432961 -0.016615728 -0.03813434 -0.020005388
0.02609488 0.04379234 -0.06247969 0.02178968 -0.0044959816 -0.007040416 -0.0075260205 -0.031998463
0.009774223 -0.0010435822 -0.03324388 0.0022107556 -0.025477571 0.0055083614 0.033582542 0.030529462
00000000: ae5b b83c c789 1a3d fa23 b53a f8e7 c9bc
00000010: 5fb0 cbbb 2e7f 073d 262b a43b debc d6bc
00000020: c2fb 33bc 599d d1bc ec10 123d 74e1 b6bc
00000030: e01c 933d 4fcc 05bc 8c85 19bc e5cf 96bc
00000040: c3c4 773b 3a8d 55bc 847f ae3b 8726 bd3c
00000050: 7dc4 743c 45d2 f03c 8762 acbc 1615 093d
00000060: 8c9a 85bc 6a63 203c d501 c6bc 3851 f5bb
00000070: 829e 99bc bc1e 903a 4af5 7c3d 860f 8dbc
00000080: e89d cabc 3537 f5ba d34c 8e3b e1ba 26bd
00000090: 4b2f 663c b3da 9b3b 85f0 1b3d ae68 1abc
000000a0: 71bd 923c 339e 113d 8eb7 143d 0315 263d
000000b0: 17bb e0bc b51d 88bc c132 1cbd 57e2 a3bc
000000c0: eec4 d53c 995f 333d b4ea 7fbd 4580 b23c
000000d0: 0753 93bb 4ab3 e6bb d69c f6bb d210 03bd
000000e0: 1024 203c cfc8 88ba bc2a 08bd 53e2 103b
000000f0: 57b6 d0bc 7c7f b43b d98d 093d ec18 fa3c

model.3.weight f4 [64]
0.82605517 0.72357285 0.7286214 0.5778084 0.80603564 0.6993536 1.0674798 0.6756263
0.8045452 0.6541286 0.7217315 0.8782062 1.5450366 0.3129513 0.67964894 0.64453423
0.78706175 0.8194306 0.62185204 0.7841632 0.35553902 0.3121385 0.3936948 0.7527629
0.74093825 0.9238449 0.67462516 0.88608533 0.7589553 0.7218364 1.2284558 0.27475476
0.7087669 0.8630275 0.648756 0.6351855 0.4014154 0.57611614 0.8028807 1.422098
0.6510811 0.28833216 0.8915676 0.47725067 0.55383754 0.9189973 0.30024043 0.7627563
0.5758845 0.7484386 1.1492165 0.4752368 0.34872755 0.57685465 0.7339062 0.68731743
0.3707703 0.71508825 0.8064265 0.40165135 1.1496506 0.65214694 0.47221714 0.3355409
00000000: 5a78 533f 123c 393f ef86 3a3f 40eb 133f
00000010: 5a58 4e3f d608 333f 2ea3 883f d8f5 2c3f
00000020: adf6 4d3f f974 273f 65c3 383f 1fd2 603f
00000030: c2c3 c53f 273b a03e 79fd 2d3f 3200 253f
00000040: e17c 493f 34c6 513f b231 1f3f ebbe 483f
00000050: 3609 b63e 9ed0 9f3e 5d92 c93e 12b5 403f
00000060: 21ae 3d3f 1981 6c3f 3cb4 2c3f 7dd6 623f
00000070: e54a 423f 45ca 383f 0a3e 9d3f a8ac 8c3e
00000080: bf71 353f 5fef 5c3f e014 263f 849b 223f
00000090: 5286 cd3e 597c 133f 9789 4d3f 4f07 b63f
000000a0: 40ad 263f 46a0 933e c63d 643f 335a f43e
000000b0: 4cc8 0d3f 6843 6b3f 1db9 993e ff43 433f
000000c0: 2b6d 133f ac99 3f3f 8719 933f 3d52 f33e
000000d0: 6b8c b23e bfac 133f 47e1 3b3f 09f4 2f3f
000000e0: 9bd5 bd3e 0610 373f f871 4e3f 3fa5 cd3e
000000f0: c027 933f 1af3 263f 72c6 f13e 04cc ab3e

model.3.bias f4 [64]
-0.1919053 -0.07304493 -0.19724908 -0.37062553 -0.3668149 -0.3664642 -0.34666076 -0.30798206
0.046747018 -0.2970408 -0.30920058 0.008880679 -0.1166764 -0.52042854 -0.35015503 -0.24568363
-0.13687587 -0.3921486 -0.4549023 -0.3313607 -0.5393253 -0.46907073 -0.51168954 -0.3702161
-0.40322673 -0.26804405 -0.23590629 -0.14903238 -0.3221133 -0.27882478 -0.37088588 -0.4658854
-0.31087396 -0.27510267 -0.23916122 -0.33635017 -0.58980906 -0.35544094 -0.31507197 -0.23495767
-0.46555486 -0.52013993 -0.2231321 -0.3831273 -0.41888565 -0.30411446 -0.49532133 -0.16252132
-0.44895807 -0.24415633 -0.15456328 -0.23048754 -0.5454291 -0.27235204 -0.24368928 -0.24792145
-0.42881817 -0.26025262 -0.1625916 -0.5082536 -0.23544437 -0.36018017 -0.37873966 -0.40213177
00000000: d382 44be 9598 95bd aafb 49be a1c2 bdbe
00000010: 2acf bbbe 32a1 bbbe 857d b1be d3af 9dbe
00000020: cd79 3f3d bb15 98be 8a4f 9ebe 4480 113c
00000030: 09f4 eebd ce3a 05bf 8547 b3be 7d94 7bbe
00000040: 3029 0cbe b4c7 c8be f4e8 e8be 1ca8 a9be
00000050: 3911 0abf 0a2a f0be 16fe 02bf f78c bdbe
00000060: bc73 cebe 123d 89be 6b91 71be f29b 18be
00000070: 09ec a4be 1fc2 8ebe c1e4 bdbe 8888 eebe
00000080: df2a 9fbe 42da 8cbe aee6 74be 1736 acbe
00000090: bafd 16bf 5bfc b5be 1d51 a1be be98 70be
000000a0: 355d eebe e427 05bf be7c 64be 4329 c4be
000000b0: 2e78 d6be e4b4 9bbe c29a fdbe fd6b 26be
000000c0: d5dd e5be 1e04 7abe d645 1ebe ed04 6cbe
000000d0: 3ea1 0bbf ba71 8bbe af89 79be 1fdf 7dbe
000000e0: 0e8e dbbe d53f 85be 6a7e 26be e81c 02bf
000000f0: 5418 71be 8969 b8be 2aea c1be 37e4 cdbe

model.3.running_mean f4 [64]
0.9346962 -8.510796 0.40673023 0.93942416 17.185122 0.2087807 0.1582492 -5.4832544
-5.322073 5.801907 -9.827535 -1.0108157 5.960601 3.1010878 1.3516437 -6.7867856
7.426198 15.80383 -13.271413 0.28595123 -1.0851243 -1.5136415 -4.5213995 -3.5671341
8.470374 -2.756559 -3.3857145 11.27187 11.500974 7.9704533 5.7639003 -2.6884372
0.21701492 2.4529855 9.348114 0.11101583 1.3396858 -13.750507 -3.857777 3.963766
14.887184 3.211819 -7.3484907 0.46183974 3.4471273 15.831382 -3.6712294 -11.416541
3.112958 13.778765 0.15571539 -2.6173356 -1.1942694 -1.5266804 10.832906 -2.5782197
-3.921109 6.0600443 6.395343 -5.054956 0.3387378 -5.0835943 -0.9963696 -2.926189
00000000: 4048 6f3f 382c 08c1 f23e d03e 1a7e 703f
00000010: 217b 8941 9cca 553e 140c 223e d276 afc0
00000020: 6c4e aac0 39a9 b940 953d 1dc1 6962 81bf
00000030: 3ebd be40 3978 4640 a902 ad3f 592d d9c0
00000040: 6aa3 ed40 7ddc 7c41 b557 54c1 3368 923e
00000050: 5ae5 8abf 01bf c1bf 4eaf 90c0 ed4b 64c0
00000060: a786 0741 766b 30c0 8caf 58c0 9459 3441
00000070: fd03 3841 f40d ff40 df71 b840 5b0f 2cc0
00000080: 2939 5e3e b7fd 1c40 e091 1541 445c e33d
00000090: d37a ab3f 1402 5cc1 d2e5 76c0 58ae 7d40
000000a0: e831 6e41 718e 4d40 d626 ebc0 4276 ec3e
000000b0: bc9d 5c40 574d 7d41 6cf5 6ac0 27aa 36c1
000000c0: b43a 4740 d275 5c41 db73 1f3e 6d82 27c0
000000d0: d2dd 98bf 436a c3bf 9553 2d41 8d01 25c0
000000e0: 73f3 7ac0 e2eb c140 a6a6 cc40 33c2 a1c0
000000f0: 0a6f ad3e ceac a2c0 1412 7fbf ae46 3bc0

model.3.running_var f4 [64]
122.09131 72.24986 100.83487 152.02919 356.32278 91.24693 49.44754 233.76576
49.888165 170.49265 332.82843 327.91675 59.932465 266.10675 149.97757 70.2338
283.80408 302.53134 130.69794 35.903465 234.0066 249.06514 319.4941 417.83682
313.1459 246.73888 115.10428 487.4039 490.2567 169.17264 107.61064 266.7734
182.92041 157.92151 256.43198 182.67801 223.3117 389.16553 308.67953 44.205772
353.61276 203.84477 577.6809 154.00856 227.14432 199.6567 302.45645 79.85038
210.33484 500.92767 79.95829 340.79865 217.33748 362.81232 433.90018 95.13788
369.12277 290.04187 213.14604 97.68055 77.68891 456.79077 345.49054 440.50208
00000000: c02e f442 ee7f 9042 74ab c942 7907 1843
00000010: 5129 b243 6e7e b642 48ca 4542 09c4 6943
00000020: 7b8d 4742 1e7e 2a43 0a6a a643 58f5 a343
00000030: d8ba 6f42 aa0d 8543 42fa 1543 b577 8c42
00000040: ece6 8d43 0344 9743 acb2 0243 269d 0f42
00000050: b101 6a43 ad10 7943 3fbf 9f43 1deb d043
00000060: ad92 9c43 27bd 7643 6435 e642 b3b3 f343
00000070: dc20 f543 322c 2943 a638 d742 ff62 8543
00000080: a0eb 3643 e8eb 1d43 4b37 8043 92ad 3643
00000090: cc4f 5f43 3095 c243 fb56 9a43 b6d2 3042
000000a0: 6fce b043 43d8 4b43 946b 1044 3102 1a43
000000b0: f224 6343 1da8 4743 6d3a 9743 65b3 9f42
000000c0: b855 5243 be76 fa43 a5ea 9f42 3a66 aa43
000000d0: 6556 5943 fa67 b543 39f3 d843 9846 be42
000000e0: b78f b843 5c05 9143 6325 5543 715c c342
000000f0: b960 9b42 3865 e443 cabe ac43 4440 dc43

model.5.weight f4 [32, 64, 3, 3]
-0.07877462 -0.06582338 -0.08528135 -0.09834073 -0.067027256 -0.07047091 -0.1250447 -0.09393041
-0.12169763 0.020958424 0.08218199 0.020669691 0.08917456 0.059153672 0.049160294 0.06485645
0.10399844 0.060249303 0.029113831 0.069928125 0.049271088 0.020617789 0.024987075 0.04873307
0.0077746795 0.07967404 0.03604746 0.026265897 0.10499643 0.044283893 0.0589132 0.05168123
0.083716825 0.022372872 0.044034734 0.07382747 -0.045650415 -0.06961891 -0.07022528 -0.05807063
-0.09283626 -0.0713762 -0.06893158 -0.06604726 -0.058937054 0.10321533 0.064014226 0.033692494
0.06924096 0.03003998 0.016724905 0.024277786 0.0065642428 0.055374186 -0.10853246 -0.14662793
-0.10855767 -0.19248286 -0.1568544 -0.12427071 -0.13511945 -0.20513305 -0.13354972 -0.08243784
-0.03694928 -0.044602826 -0.07215045 -0.10112773 -0.022787789 -0.027804594 -0.08678631 -0.061409496
-0.040062156 0.0020225162 0.013144462 -0.050830264 -0.075815745 -0.05363062 -0.019087683 -0.005018708
-0.013310008 0.091882 0.08739934 0.028392037 0.03113761 0.06487601 0.08231825 0.012127079
0.05366591 0.019550156 -0.035982493 0.0036497829 -0.03488041 -0.017209297 0.05037929 0.009249157
-0.025364442 0.022338342 -0.015150883 -0.026871433 -0.07174884 -0.009406148 -0.021220762 -0.06787377
-0.0690966 -0.05386012 -0.04774637 -0.00674587 -0.09782902 -0.04470925 -0.07137644 -0.02702947
-0.012586445 -0.06476712 -0.108208165 -0.13755123 -0.075184055 -0.0147993015 0.017255435 0.027563406
0.0029145798 0.0037831315 0.023311203 -0.022388749 0.034986615 0.003168766 0.05372 0.0561781
0.042161215 0.06051046 0.06443932 0.013055199 0.05171824 0.029341998 0.07329345 -0.020794228
-0.06673639 -0.0822188 -0.03897946 -0.04318084 -0.07495863 -0.059519634 -0.100274175 -0.042548466
0.07579637 0.01738583 0.08979329 0.086937666 0.112064704 0.030380277 0.09804862 0.03263791
0.065801844 -0.09185189 -0.085218385 -0.09045342 -0.10905338 -0.052971993 -0.1224308 -0.104592234
-0.050079938 -0.03866804 0.01372506 0.036901318 0.00019134294 -0.005827687 0.029839426 0.049305487
0.012776088 0.01173237 -0.044703543 -0.04998993 -0.025457133 -0.026967587 -0.063804545 -0.07958233
-0.077779084 -0.08722362 -0.07504969 -0.063861795 0.02933618 0.06812137 0.055597503 0.045756813
0.028526593 0.042850792 0.0037849024 0.04679122 0.036087006 0.069014594 0.01862876 0.052978482
0.022164548 0.0012306604 -0.0015168465 -0.017392505 0.042261977 -0.0024526496 0.10784094 0.12449958
0.06870111 0.08264144 0.13161741 0.123370886 0.027931314 0.06134232 0.051773116 -0.13661343
-0.17786427 -0.1345327 -0.13550508 -0.13985336 -0.18259686 -0.08424522 -0.15324965 -0.12828484
0.027089573 0.076548174 0.053917956 0.035877872 0.06041984 0.016998783 0.016939426 0.07331221
0.044534054 -0.11199736 -0.08694017 -0.10517991 -0.07723712 -0.116649896 -0.061801974 -0.034609333
-0.044228517 -0.09114139 0.03292984 0.046616316 0.09554058 0.07207455 0.08820654 0.046265706
-0.0015181345 0.082094766 0.025697052 0.030547407 0.02377345 0.040510196 0.091188185 0.044195715
0.075808086 0.033505566 0.028256856 0.07459601 0.08532612 0.077865824 0.04409878 0.055291858
00000000: 9754 a1bd 69ce 86bd fda7 aebd dd66 c9bd
00000010: 9645 89bd 0d53 90bd b80b 00be 965e c0bd
00000020: 9b3c f9bd 00b1 ab3c 084f a83d 7c53 a93c
00000030: 27a1 b63d 1f4b 723d 4e5c 493d 75d3 843d
00000040: 22fd d43d f9c7 763d 2180 ee3c 7a36 8f3d
00000050: 7bd0 493d a3e6 a83c b2b1 cc3c 549c 473d
00000060: bdc2 fe3b 252c a33d 80a6 133d 942b d73c
00000070: 5e08 d73d 0763 353d f84e 713d b3af 533d
00000080: ba73 ab3d 5047 b73c c45d 343d db32 973d
00000090: eefb 3abd 5c94 8ebd 46d2 8fbd 78db 6dbd
000000a0: f020 bebd af2d 92bd 002c 8dbd c943 87bd
000000b0: fb67 71bd 8f62 d33d e419 833d 2401 0a3d
000000c0: 34ce 8d3d 6716 f63c ab02 893c 35e2 c63c
000000d0: dc18 d73b 0bd0 623d 4446 debd a225 16be
000000e0: 7c53 debd 3a1a 45be 719e 20be a481 febd
000000f0: c15c 0abe 660e 52be 42c1 08be 2cd5 a8bd
00000100: 2158 17bd 74b1 36bd 9dc3 93bd 0e1c cfbd
00000110: 75ad babc 76c6 e3bc 05bd b1bd 8688 7bbd
00000120: 3718 24bd 318c 043b df5b 573c 6533 50bd
00000130: 4945 9bbd c8ab 5bbd c65d 9cbc f973 a4bb
00000140: 3812 5abc a12c bc3d 6dfe b23d 6b96 e83c
00000150: 4d14 ff3c b7dd 843d 7896 a83d a8b0 463c
00000160: c9d0 5b3d a627 a03c 6162 13bd 3231 6f3b
00000170: c3de 0ebd 83fa 8cbc 845a 4e3d c789 173c
00000180: 17c9 cfbc e6fe b63c 693b 78bc 7b21 dcbc
00000190: 0ef1 92bd 3f1c 1abc 2ad7 adbc 6701 8bbd
000001a0: 8582 8dbd 6e9c 5cbd b391 43bd 760c ddbb
000001b0: 955a c8bd 0c21 37bd d02d 92bd e86c ddbc
000001c0: 6037 4ebc a0a4 84bd 3e9c ddbd 3bda 0cbe
000001d0: 19fa 99bd c578 72bc 455b 8d3c a7cc e13c
000001e0: 8902 3f3b 6aee 773b 23f7 be3c 9c68 b7bc
000001f0: 204e 0f3d 12ab 4f3b 8109 5c3d 021b 663d
00000200: 3db1 2c3d d1d9 773d c3f8 833d 79e5 553c
00000210: 81d6 533d a15e f03c e01a 963d a858 aabc
00000220: 17ad 88bd 5562 a8bd eda8 1fbd 64de 30bd
00000230: e983 99bd dcca 73bd 8c5c cdbd 4d47 2ebd
00000240: 213b 9b3d ba6c 8e3c 8be5 b73d 600c b23d
00000250: 2e82 e53d 0fe0 f83c b7cd c83d 54af 053d
00000260: 1ec3 863d d81c bcbd fa86 aebd a53f b9bd
00000270: 6157 dfbd 29f9 58bd 00bd fabd 7434 d6bd
00000280: 9f20 4dbd 6162 1ebd 13df 603c d625 173d
00000290: 3ba3 4839 2ff6 bebb d071 f43c 8df4 493d
000002a0: cc52 513c 2039 403c 101b 37bd 3ec2 4cbd
000002b0: 7a8b d0bc 21eb dcbc f5ab 82bd 10fc a2bd
000002c0: a44a 9fbd 4ca2 b2bd a7b3 99bd f9c9 82bd
000002d0: 6e52 f03c 3883 8b3d 35ba 633d 7f6b 3b3d
000002e0: 9ab0 e93c 5084 2f3d 200c 783b 26a8 3f3d
000002f0: f8cf 133d 8657 8d3d 579b 983c f7ff 583d
00000300: 6d92 b53c 1c4e a13a ecd0 c6ba ba7a 8ebc
00000310: e51a 2d3d a2bc 20bb b6db dc3d a3f9 fe3d
00000320: 2bb3 8c3d ea3f a93d b7c6 063e e0a9 fc3d
00000330: 36d0 e43c 1642 7b3d 0c10 543d 64e4 0bbe
00000340: 0d22 36be f1c2 09be d8c1 0abe b835 0fbe
00000350: acfa 3abe c288 acbd 7aed 1cbe 1a5d 03be
00000360: f4ea dd3c 4ac5 9c3d 13d9 5c3d adf4 123d
00000370: cb7a 773d 0841 8b3c 8dc4 8a3c b624 963d
00000380: 5769 363d df5e e5bd b00d b2bd 9168 d7bd
00000390: 7f2e 9ebd 24e6 eebd 1124 7dbd 84c2 0dbd
000003a0: f628 35bd 56a8 babd 71e1 063d c0f0 3e3d
000003b0: c8aa c33d d29b 933d a1a5 b43d 1c81 3d3d
000003c0: 24fc c6ba 4d21 a83d a082 d23c 8e3e fa3c
000003d0: 8ac0 c23c 05ee 253d dfc0 ba3d 9106 353d
000003e0: 4541 9b3d 223d 093d ec7a e73c cbc5 983d
000003f0: 76bf ae3d 1e78 9f3d eca0 343d b779 623d

model.5.bias f4 [32]
-0.017524838 -0.008293349 0.036200523 -0.018441608 -0.020756967 -0.013875763 0.014606582 -0.011878183
-0.0066658086 0.03633926 0.0356683 0.021612527 0.03602786 0.0052124085 -0.026512329 0.04196992
0.0041684383 -0.016054913 0.024602896 0.006785568 -0.027267631 -0.0028920951 -0.025375944 -0.014804595
-0.009168109 0.023126187 0.041514482 0.008310507 0.022701483 -0.0004893354 -0.006847249 -0.023842815
00000000: 4090 8fbc d4e0 07bc 0047 143d db12 97bc
00000010: 840a aabc 2b57 63bc 7250 6f3c b69c 42bc
00000020: db6c dabb 7ad8 143d ec18 123d c10c b13c
00000030: f391 133d dacc aa3b 6230 d9bc a7e8 2b3d
00000040: 6597 883b 9885 83bc 038c c93c 7859 de3b
00000050: 5e60 dfbc 4e89 3dbb 36e1 cfbc f98e 72bc
00000060: d635 16bc 2173 bd3c 170b 2a3d cb28 083c
00000070: 76f8 b93c be46 00ba e35e e0bb 0252 c3bc

model.6.weight f4 [32]
0.47907272 0.69349265 0.63941264 0.5741619 0.99620193 0.91263914 1.2581435 0.81153274
0.5519559 0.87052053 0.7906943 0.95522445 0.68247294 1.4037234 0.92824185 1.0076842
0.8713251 0.63970107 0.7835152 0.72981876 0.5938317 0.5701631 0.79280955 0.83352315
0.69922966 0.51664436 1.1040372 1.3226464 0.8398045 0.9401394 0.8828299 1.2013642
00000000: 0549 f53e bc88 313f 8cb0 233f 46fc 123f
00000010: 1707 7f3f b8a2 693f d90a a13f 9cc0 4f3f
00000020: fb4c 0d3f 6fda 5e3f f16a 4a3f 9789 743f
00000030: 8cb6 2e3f 35ad b33f 42a1 6d3f ccfb 803f
00000040: 290f 5f3f 73c3 233f 7494 483f 67d5 3a3f
00000050: 5b05 183f 35f6 113f 91f5 4a3f c661 553f
00000060: b700 333f ce42 043f 1751 8d3f 7a4c a93f
00000070: 6dfd 563f faac 703f 2401 623f 4dc6 993f

model.6.bias f4 [32]
-0.498264 -0.42737255 -0.41201755 -0.40883264 -0.089177415 -0.329875 -0.32228765 -0.28417438
-0.49090803 -0.32984796 -0.28573075 -0.18459733 -0.32811853 -0.182344 -0.31417257 -0.2823566
-0.2558675 -0.38377807 -0.19351861 -0.34455007 -0.2870942 -0.38675943 -0.23791052 0.06430543
-0.32993674 -0.53640807 0.020483747 0.16477779 -0.3263275 -0.30854166 -0.30724669 -0.060864568
00000000: 761c ffbe 93d0 dabe f7f3 d2be 8352 d1be
00000010: a6a2 b6bd 60e5 a8be e302 a5be 4e7f 91be
00000020: 4c58 fbbe d5e1 a8be 4d4b 92be 1507 3dbe
00000030: 27ff a7be 63b8 3abe 3adb a0be 0b91 90be
00000040: 1101 83be 8f7e c4be be29 46be de68 b0be
00000050: 03fe 92be 5505 c6be d19e 73be 91b2 833d
00000060: 78ed a8be 0a52 09bf 88cd a73c 82bb 283e
00000070: 6614 a7be 2cf9 9dbe 704f 9dbe 204d 79bd

model.6.running_mean f4 [32]
-2.3951092 -1.272991 -1.358139 -2.4464982 -2.1697948 2.4910574 2.9337165 0.006494184
0.076526396 -1.2296995 3.0757678 0.63965726 2.5170612 1.9087046 0.08687167 0.52147025
-0.44195935 1.428057 -2.675334 -0.46364087 -3.5485537 2.252262 3.7122924 -3.2384381
2.554311 -0.7265066 -1.0623202 3.3276322 0.24558273 1.3078442 3.9148755 2.950662
00000000: 7849 19c0 5ef1 a2bf 80d7 adbf 6d93 1cc0
00000010: ebdd 0ac0 7c6d 1f40 03c2 3b40 2acd d43b
00000020: dfb9 9c3d cb66 9dbf 61d9 4440 94c0 233f
00000030: 8817 2140 6f50 f43f c6e9 b13d 137f 053f
00000040: 7f48 e2be 92ca b63f ac38 2bc0 5662 edbe
00000050: 811b 63c0 1025 1040 3396 6d40 9242 4fc0
00000060: d579 2340 56fc 39bf 1cfa 87bf edf7 5440
00000070: 0a7a 7b3e 7067 a73f 528d 7a40 a5d7 3c40

model.6.running_var f4 [32]
53.43613 69.96242 31.495266 77.91491 29.182611 127.12488 63.923145 30.791655
24.255562 27.781279 76.390144 32.497837 86.85236 26.512629 15.682577 25.302519
17.873281 29.78312 28.032885 117.83921 43.8199 50.43265 81.155205 49.515137
68.47179 19.351503 118.09302 69.904854 40.9549 165.27272 47.742382 31.904617
00000000: 99be 5542 c2ec 8b42 4ef6 fb41 6fd4 9b42
00000010: fd75 e941 f03f fe42 4db1 7f42 4f55 f641
00000020: 640b c241 0f40 de41 c1c7 9842 c9fd 0142
00000030: 69b4 ad42 dd19 d441 d6eb 7a41 8f6b ca41
00000040: 7bfc 8e41 d443 ee41 5943 e041 adad eb42
00000050: 9447 2f42 09bb 4942 774f a242 800f 4642
00000060: 8ef1 8842 e1cf 9a41 a02f ec42 49cf 8b42
00000070: d1d1 2342 d145 2543 33f8 3e42 a83c ff41

model.8.weight f4 [32, 32, 3, 3]
0.06997823 0.014309629 0.08316446 0.0040348363 0.021613102 -0.02725634 0.074362926 -0.008077856
0.07923846 0.039986376 -0.018383235 -0.047044396 -0.0138850175 0.07128123 0.013892569 -0.01942276
-0.026254918 -0.00097012037 0.010594725 0.009264543 0.021748848 -0.03196541 0.03687564 0.07247246
0.02204459 -0.03464168 -0.029890152 0.021242738 0.08478416 0.03646918 0.060727134 0.09275492
0.03537424 0.08482406 -0.018475125 0.065629 -0.17072771 -0.114752315 -0.1723942 -0.07477411
-0.06602474 -0.11634964 -0.100261725 -0.104337595 -0.0954912 -0.003460419 -0.025162833 -0.03010726
-0.02680321 -0.12257889 -0.048965547 -0.048539758 -0.092946544 -0.06554073 0.2088763 0.1830164
0.1947643 0.14034413 0.059638143 0.060762845 0.19710056 0.11558448 0.24754539 -0.1892769
-0.15363747 -0.19085117 -0.18870893 -0.18177083 -0.17690969 -0.12810166 -0.22323853 -0.12492563
-0.21250296 -0.15773155 -0.2020445 -0.13460468 -0.16682488 -0.0990637 -0.09767067 -0.16217008
-0.1796415 -0.12209418 -0.16726117 -0.121410534 -0.16288668 -0.17273714 -0.076470874 -0.09111138
-0.1116142 -0.11053276 -0.18219742 -0.0773918 -0.07198747 -0.109211914 -0.13166839 -0.1184855
-0.13266861 -0.15840119 -0.12576689 -0.2110857 -0.26658225 -0.25903484 -0.14430982 -0.21118847
-0.19392803 -0.29139885 -0.2676293 -0.21110733 -0.08525068 -0.1125904 -0.1266115 -0.06646428
-0.13323745 -0.090062276 -0.16324368 -0.123898625 -0.144905 0.23589738 0.1736951 0.12486923
0.059496902 0.08002152 0.026890963 0.0914245 0.036331605 0.12271332 0.42845526 0.36595786
0.3867565 -0.12507236 -0.107970275 -0.08763466 0.22079821 0.19911203 0.29181924 -0.17911598
-0.08045861 -0.16498718 -0.04786559 -0.008324444 -0.014955607 -0.102758184 -0.0877463 -0.19280338
-0.23841539 -0.19660981 -0.19219795 -0.00701358 0.030532787 -0.03507812 -0.22243315 -0.17784566
-0.17938378 -0.07905425 -0.053505775 -0.10456991 -0.04324069 -0.04294539 0.010722376 -0.07585567
-0.06275818 -0.1245409 0.053264223 0.018767307 -0.02085158 0.037082456 -0.018443502 0.018728102
0.08368488 0.041403323 0.060618434 -0.015975738 0.012910489 -0.055121683 -0.08958211 -0.046752963
-0.069230326 -0.0749608 -0.04114887 0.002205663 0.0508387 0.027590876 -0.0036302058 0.0619698
0.039154675 -0.0044725467 0.045703568 0.047668558 0.0037072094 -0.02152454 0.030181466 0.03403426
-0.024598774 -0.09436272 -0.0048146136 -0.039901387 -0.0768333 0.018252388 -0.21701849 -0.2508911
-0.16512662 -0.19554582 -0.26356325 -0.20755738 -0.19924799 -0.21465446 -0.21598998 0.058707997
0.11965938 0.0732738 0.07454166 0.11261376 0.123059474 0.046884697 0.020103255 0.1263342
-0.14338109 -0.09422261 -0.12927945 -0.07405567 -0.11898552 -0.13071835 -0.14705446 -0.09491913
-0.15605383 -0.004978792 -0.0025077837 0.020905893 -0.052682098 0.013254745 0.020834593 -0.014350487
0.03929573 0.020999782 -0.028636973 -0.045138832 0.00044085758 0.01954242 0.010358235 0.047338296
0.018728077 -0.03543275 -0.0033332584 0.0592828 0.05061513 0.12326206 -0.022222284 0.051381744
0.04027638 0.009382184 0.010739554 0.0701115 -0.20142213 -0.13463385 -0.15506646 -0.13933955
00000000: bf50 8f3d ef72 6a3c 2152 aa3d a936 843b
00000010: f60d b13c b048 dfbc 974b 983d fc58 04bc
00000020: c647 a23d c1c8 233d 7098 96bc a0b1 40bd
00000030: fc7d 63bc e5fb 913d a89d 633c 7b1c 9fbc
00000040: 8e14 d7bc ad4f 7eba 7f95 2d3c 4fca 173c
00000050: a42a b23c 29ee 02bd e90a 173d 716c 943d
00000060: db96 b43c 6fe4 0dbd 31dc f4bc 4005 ae3c
00000070: 51a3 ad3d b560 153d 04bd 783d 4bf6 bd3d
00000080: 94e4 103d 3db8 ad3d 2559 97bc 7f68 863d
00000090: 3fd3 2ebe 4303 ebbd 1b88 30be 2b23 99bd
000000a0: fb37 87bd b848 eebd 0556 cdbd f3ae d5bd
000000b0: e490 c3bd 32c8 62bb 4922 cebc 80a3 f6bc
000000c0: 6892 dbbc a40a fbbd 1990 48bd a0d1 46bd
000000d0: c25a bebd 383a 86bd abe3 553e a768 3b3e
000000e0: 4b70 473e 5fb6 0f3e 2047 743d 76e2 783d
000000f0: bbd4 493e 8eb7 ec3d 8a7c 7d3e ced1 41be
00000100: 2453 1dbe 7d6e 43be ea3c 41be 2222 3abe
00000110: d027 35be 152d 03be a498 64be 02d9 ffbd
00000120: 609a 59be 6184 21be c1e4 4ebe cfd5 09be
00000130: 24d4 2abe e9e1 cabd 8f07 c8bd ea0f 26be
00000140: f1f3 37be 830c fabd 8346 2bbe 16a6 f8bd
00000150: c4cb 26be 01e2 30be c39c 9cbd 9a98 babd
00000160: fc95 e4bd 005f e2bd f691 3abe 987f 9ebd
00000170: 2b6e 93bd 7faa dfbd 14d4 06be 87a8 f2bd
00000180: 48da 07be ec33 22be 09c9 00be da26 58be
00000190: 787d 88be 37a0 84be f4c5 13be ca41 58be
000001a0: 1295 46be 3b32 95be b506 89be 852c 58be
000001b0: e997 aebd cc95 e6bd 72a6 01be 6d1e 88bd
000001c0: 666f 08be 9272 b8bd 5a29 27be 90be fdbd
000001d0: fa61 14be 158f 713e 21dd 313e 70bb ff3d
000001e0: 06b3 733d 53e2 a33d 704a dc3c c53c bb3d
000001f0: 73d0 143d 1f51 fb3d 7d5e db3e d45e bb3e
00000200: f304 c63e f812 00be 851f ddbd cd79 b3bd
00000210: ed18 623e 06e4 4b3e 5569 953e 2e6a 37be
00000220: 7cc7 a4bd 66f2 28be b50e 44bd 4063 08bc
00000230: 5d08 75bc e272 d2bd 55b4 b3bd 406e 45be
00000240: 2a23 74be 1554 49be 8acf 44be 2cd2 e5bb
00000250: e51f fa3c 13ae 0fbd 84c5 63be 2c1d 36be
00000260: 62b0 37be 32e7 a1bd df28 5bbd c028 d6bd
00000270: 261d 31bd 81e7 2fbd e8ac 2f3c 385a 9bbd
00000280: 5c87 80bd 4d0f ffbd 962b 5a3d e5bd 993c
00000290: efd0 aabc c6e3 173d d416 97bc ad6b 993c
000002a0: fa62 ab3d 8896 293d 094b 783d 8ddf 82bc
000002b0: 8486 533c 46c7 61bd d376 b7bd 0980 3fbd
000002c0: a1c8 8dbd 0c85 99bd b88b 28bd e28c 103b
000002d0: 3e3c 503d 4306 e23c bfe8 6dbb 0cd4 7d3d
000002e0: a760 203d 718e 92bb aa33 3b3d 1b40 433d
000002f0: a7f4 723b 3b54 b0bc 1f3f f73c 8267 0b3d
00000300: 5e83 c9bc 3e41 c1bd e8c3 9dbb a36f 23bd
00000310: c75a 9dbd 0886 953c 183a 5ebe cc74 80be
00000320: f416 29be 2a3d 48be c3f1 86be ec89 54be
00000330: aa07 4cbe 61ce 5bbe 7a2c 5dbe cc77 703d
00000340: fa0f f53d 9310 963d 4ca9 983d 0ba2 e63d
00000350: 9b06 fc3d 2b0a 403d 95af a43c c15d 013e
00000360: 7ed2 12be c9f7 c0bd d561 04be 80aa 97bd
00000370: aeae f3bd 08db 05be 7295 16be f664 c2bd
00000380: 93cc 1fbe 2225 a3bb a159 24bb d642 ab3c
00000390: 2fc9 57bd 6e2a 593c 4fad aa3c 4e1e 6bbc
000003a0: 8ff4 203d bc07 ac3c 1698 eabc 7fe3 38bd
000003b0: e722 e739 6d17 a03c 96b5 293c cde5 413d
000003c0: a06b 993c ee21 11bd cc72 5abb 85d2 723d
000003d0: d051 4f3d d270 fc3d 820b b6bc aa75 523d
000003e0: d8f8 243d bbb7 193c f4f4 2f3c 9e96 8f3d
000003f0: 9a41 4ebe 75dd 09be bec9 1ebe 07af 0ebe

model.8.bias f4 [32]
0.01554008 -0.014929685 -0.009935501 -0.024944494 -0.04618913 0.023049004 0.0015108014 0.03303049
-0.037472416 -0.015159839 -0.054543484 -0.009596649 -0.03917398 0.038533706 0.039693687 -0.018168489
0.001216451 0.04425296 0.05705721 -0.028054504 -0.016452037 -0.037639625 -0.052366357 0.028533291
-0.0039354195 0.0032238106 -0.029627712 0.033071328 -0.009857824 0.040510777 -0.012854394 -0.00841416
00000000: d29b 7e3c a39b 74bc 83c8 22bc 6558 ccbc
00000010: d030 3dbd 44d1 bc3c 1506 c63a fb4a 073d
00000020: ad7c 19bd f960 78bc fd68 5fbd 433b 1dbc
00000030: e574 20bd 85d5 1d3d d995 223d 15d6 94bc
00000040: 5371 9f3a 9742 353d d2b4 693d 8fd2 e5bc
00000050: 6cc6 86bc 022c 1abd 1b7e 56bd a6be e93c
00000060: b1f4 80bb 9146 533b d1b5 f2bc cd75 073d
00000070: b682 21bc a1ee 253d 3c9b 52bc 8cdb 09bc

model.9.weight f4 [32]
1.1769301 1.0820938 0.6047462 0.9638104 0.67058766 0.7396231 0.56532115 1.0040007
1.0211859 1.0116125 1.041955 0.89776105 0.5876169 1.2579336 0.57789785 0.69071454
1.107507 0.93032616 0.5399918 0.6204482 0.6805302 1.2861931 0.52394027 1.0683929
0.9701831 0.9329813 0.8160548 1.0310495 1.0585859 0.9112194 0.92370224 0.68797964
00000000: a5a5 963f 0d82 8a3f a6d0 1a3f 47bc 763f
00000010: a2ab 2b3f f157 3d3f e3b8 103f 1883 803f
00000020: 38b6 823f 857c 813f c85e 853f abd3 653f
00000030: 106e 163f f803 a13f 1df1 133f abd2 303f
00000040: cac2 8d3f db29 6e3f e73c 0a3f b1d5 1e3f
00000050: 3a37 2e3f faa1 a43f f320 063f 19c1 883f
00000060: eb5d 783f ddd7 6e3f f8e8 503f 6ef9 833f
00000070: be7f 873f ad45 693f c077 6c3f 6f1f 303f

model.9.bias f4 [32]
-0.39539573 -0.23481935 -0.32543427 0.108581886 -0.38921368 -0.31590423 -0.4789664 0.17971635
0.16874015 -0.008237499 -0.13951163 -0.12229032 -0.39777792 -0.3481538 -0.29953983 -0.34938693
-0.14498492 -0.3697559 -0.46505037 -0.43660006 -0.35438815 -0.030242896 -0.3511048 -0.21718411
0.08148021 -0.22704437 -0.046934403 -0.092473105 -0.17165656 -0.07942002 0.094699845 -0.41673407
00000000: 4f71 cabe 7c74 70be 529f a6be 2e60 de3d
00000010: 0447 c7be 33be a1be 153b f5be 9007 383e
00000020: 38ca 2c3e 93f6 06bc 23dc 0ebe 5973 fabd
00000030: 8ca9 cbbe 3741 b2be 495d 99be d8e2 b2be
00000040: ed76 14be a550 bdbe 151b eebe 0b8a dfbe
00000050: 5d72 b5be f3bf f7bc 02c4 b3be 8365 5ebe
00000060: 19df a63d 527e 68be 4a3e 40bd 8a62 bdbd
00000070: bdc6 2fbe f7a6 a2bd fef1 c13d 2b5e d5be

model.9.running_mean f4 [32]
-1.5203573 -0.8559353 -2.786244 -2.8278608 2.8515332 1.8664138 -0.68133587 -3.3164976
-3.302041 3.3268535 0.5202133 3.6101584 -0.914079 -1.9946152 -1.157355 2.1545591
0.6433748 1.0040771 -0.73829204 -1.1794547 1.5276935 0.22308706 -2.1888287 0.3440328
-2.4836195 0.37584662 -1.2150819 0.9928598 -1.1317728 0.15406312 -3.0476305 0.36007848
00000000: 119b c2bf 931e 5bbf d251 32c0 acfb 34c0
00000010: 857f 3640 a6e6 ee3f 076c 2ebf 7f41 54c0
00000020: a454 53c0 2beb 5440 b32c 053f d60c 6740
00000030: 1501 6abf 8d4f ffbf 3524 94bf 4ce4 0940
00000040: 36b4 243f 9985 803f b500 3dbf 5ff8 96bf
00000050: 768b c33f ef70 643e c515 0cc0 1125 b03e
00000060: 9ff3 1ec0 f86e c03e ce87 9bbf 0f2c 7e3f
00000070: eedd 90bf b9c2 1d3e 610c 43c0 355c b83e

model.9.running_var f4 [32]
20.071499 29.103125 62.38314 74.02567 49.13538 66.34575 36.60031 67.127365
78.99871 63.736156 40.19933 52.17689 20.55982 27.074808 41.919678 57.734573
44.059406 40.891193 50.4516 37.214832 67.60971 31.0869 85.07708 42.432682
76.097305 42.519535 16.56728 40.410286 39.43471 41.40184 70.23489 44.46873
00000000: 6e92 a041 33d3 e841 5688 7942 250d 9442
00000010: a18a 4442 06b1 8442 b866 1242 3641 8642
00000020: 57ff 9d42 d3f1 7e42 1dcc 2042 23b5 5042
00000030: 837a a441 3599 d841 c0ad 2742 34f0 6642
00000040: d53c 3042 9590 2342 70ce 4942 fddb 1442
00000050: 2c38 8742 f9b1 f841 7727 aa42 11bb 2942
00000060: d231 9842 0114 2a42 ca89 8441 22a4 2142
00000070: 25bd 1d42 7c9b 2542 4478 8c42 fbdf 3142

model.11.weight f4 [32, 32, 3, 3]
0.072718434 0.14788415 0.12020801 0.068252504 0.12251469 0.076235406 -0.017005194 0.060484722
0.034238737 0.18864328 0.23761655 0.16947034 0.22796912 0.23562863 0.12070803 0.1301314
0.12892406 0.13604435 -4.3570763e-05 0.04312466 -0.0074705244 0.0070935055 0.040480983 0.06290626
0.02148352 0.086570255 0.02088875 0.051215205 0.15038317 0.15804079 0.17082447 0.08364566
0.13350247 0.07869891 0.07279259 0.13979554 -0.040880486 -0.079342686 -0.07327902 -0.13165638
-0.09644112 -0.106345214 -0.12935664 -0.104770005 -0.11800038 -0.1043271 -0.067042686 -0.16033147
-0.06856551 -0.09902295 -0.121294394 -0.124417976 -0.15452042 -0.042827815 0.020287644 -0.0115355905
-0.038743764 -0.045139156 -0.005228589 -0.042466488 0.015532482 0.004568748 0.027244464 0.122142114
0.14045902 0.08625335 0.1687689 0.122220665 0.09175362 0.15698656 0.18858999 0.0812018
0.21935908 0.1346613 0.13995486 0.22285143 0.20607595 0.13472666 0.13785325 0.19980334
0.14127712 -0.029956177 0.015197192 0.006539345 -0.061353378 -0.07273038 -0.052377447 -0.1509578
-0.060474336 -0.11279863 0.16763957 0.1175916 0.09102761 0.062140252 0.17533839 0.10538021
0.11965672 0.1417805 0.04876522 0.00809203 0.031317435 -0.01736932 -0.06632223 0.025590418
0.013287638 0.00045442363 -0.04191119 -0.08344521 0.15243766 0.20455319 0.15611066 0.0975895
0.18292941 0.081426516 0.045437094 0.12925728 0.06469204 -0.0555207 0.019528626 -0.07492164
-0.11976788 0.0073518404 -0.02632824 -0.15620022 -0.116532564 -0.086795904 -0.047954906 -0.07261611
0.015788624 -0.035315175 -0.0025795228 -0.047089636 0.030931529 -0.03596715 0.0075866817 -0.05072442
-0.1058589 -0.1184356 -0.071864516 -0.12445803 -0.09536269 0.027515728 -0.05838195 0.0114132175
0.24764432 0.23866077 0.2600563 0.2378664 0.23803782 0.2828835 0.23694995 0.23588683
0.19908614 0.21339738 0.20945542 0.14986415 0.1977023 0.16193755 0.1418946 0.11962637
0.18000843 0.10215102 0.028163312 0.028604537 0.004114386 0.012879077 -0.05833554 -0.007586172
0.029939996 -0.005981276 -0.008626188 -0.0492516 -0.12859316 -0.10590002 -0.094248764 -0.057405792
-0.12831476 -0.0037721877 -0.08982586 0.012775513 -0.11138445 -0.14808926 -0.14048904 -0.09759337
-0.13650694 -0.054436762 -0.003035765 -0.026305608 -0.050130095 0.2487847 0.31849554 0.17754304
0.28170735 0.25251645 0.2779872 0.26501113 0.2425256 0.19738597 0.040395133 0.041647945
0.0095656505 0.055953838 0.043446284 0.03246546 0.051532224 0.06424788 0.071537524 0.25719076
0.2342334 0.15595464 0.17104715 0.29302862 0.17404339 0.12564677 0.2117156 0.1900542
0.069052316 0.15115836 0.071751975 0.08705292 0.09271504 0.12029312 0.05256367 0.035314128
0.033158466 0.025197154 0.11980605 0.014040227 0.022064185 0.13716762 0.06194263 0.009230712
0.07172661 -0.03247524 0.11249635 0.12624572 0.03861589 0.1389704 0.1131517 0.13036549
0.09534549 0.07397691 0.029558074 0.12152299 0.14829999 0.07277513 0.115237206 0.10272254
0.07801683 0.11917446 0.1116301 0.10209402 0.18213384 0.119093716 0.11723768 0.10867029
00000000: 67ed 943d f16e 173e 9e2f f63d f8c7 8b3d
00000010: fbe8 fa3d 4f21 9c3d 7a4e 8bbc d4be 773d
00000020: eb3d 0c3d b42b 413e c151 733e a289 2d3e
00000030: bd70 693e a248 713e c635 f73d 2a41 053e
00000040: ab04 043e 364f 0b3e c0bf 36b8 7ca3 303d
00000050: 4dcb f4bb a370 e83b 63cf 253d ffd4 803d
00000060: 35fe af3c bf4b b13d e21e ab3c 09c7 513d
00000070: 0cfe 193e 72d5 213e 9cec 2e3e 6a4e ab3d
00000080: dfb4 083e e52c a13d 4814 953d 9026 0f3e
00000090: 4c72 27bd 6b7e a2bd 5013 96bd eed0 06be
000000a0: ec82 c5bd 85cb d9bd 1176 04be a891 d6bd
000000b0: 2faa f1bd 72a9 d5bd ad4d 89bd ef2d 24be
000000c0: 136c 8cbd 8bcc cabd 3269 f8bd dace febd
000000d0: 9a3a 1ebe 386c 2fbd 4632 a63c c6ff 3cbc
000000e0: c8b1 1ebd d6e3 38bd 9554 abbb 57f1 2dbd
000000f0: f47b 7e3c 70b5 953b c82f df3c a525 fa3d
00000100: 7dd4 0f3e 99a5 b03d c1d1 2c3e d44e fa3d
00000110: 52e9 bb3d 16c1 203e bc1d 413e 214d a63d
00000120: ab9f 603e a7e4 093e 5450 0f3e 2a33 643e
00000130: 9305 533e c9f5 093e 6729 0d3e 3f99 4c3e
00000140: f3aa 103e a866 f5bc a5fd 783c 0048 d63b
00000150: ae4d 7bbd aaf3 94bd bc89 56bd ae94 1abe
00000160: f0b3 77bd f802 e7bd b5a9 2b3e ddd3 f03d
00000170: af6c ba3d c786 7e3d e88b 333e 94d1 d73d
00000180: 950e f53d e82e 113e 0abe 473d 6f94 043c
00000190: b646 003d 1b4a 8ebc f3d3 87bd ffa2 d13c
000001a0: 65b4 593c b53f ee39 11ab 2bbd 52e5 aabd
000001b0: 9e18 1c3e 6476 513e 79db 1f3e 01dd c73d
000001c0: d951 3b3e f2c2 a63d 3f1c 3a3d 055c 043e
000001d0: 437d 843d ac69 63bd 7ffa 9f3c 8470 99bd
000001e0: dd48 f5bd b5e7 f03b 52ae d7bc f3f2 1fbe
000001f0: a0a8 eebd 0dc2 b1bd 5d6c 44bd c1b7 94bd
00000200: 2557 813c a5a6 10bd 360d 29bb 10e1 40bd
00000210: 1e64 fd3c 4a52 13bd b399 f83b 69c4 4fbd
00000220: 8dcc d8bd 5d8e f2bd b42d 93bd dae3 febd
00000230: 844d c3bd aa68 e13c e921 6fbd 81fe 3a3c
00000240: 7996 7d3e 7d63 743e 1926 853e 4093 733e
00000250: 30c0 733e 1bd6 903e 02a3 723e 518c 713e
00000260: 3ddd 4b3e d884 5a3e 7b7b 563e fd75 193e
00000270: 7972 4a3e f5d2 253e d14c 113e acfe f43d
00000280: 2154 383e 8e34 d13d bfb6 e63c 1054 ea3c
00000290: f9d1 863b c402 533c 3ff1 6ebd 6c95 f8bb
000002a0: b944 f53c 94fe c3bb db54 0dbc 0cbc 49bd
000002b0: edad 03be 1ce2 d8bd 7f05 c1bd 5622 6bbd
000002c0: f264 03be cf36 77bb 9ff6 b7bd 6350 513c
000002d0: 881d e4bd b6a4 17be 5cdc 0fbe 08df c7bd
000002e0: 7ac8 0bbe 15f9 5ebd aff3 46bb dc7e d7bc
000002f0: 3755 4dbd 6bc1 7e3e d911 a33e d8cd 353e
00000300: f23b 903e d649 813e 5754 8e3e 8aaf 873e
00000310: a258 783e 8c1f 4a3e 5e75 253d 0997 2a3d
00000320: 3fb9 1c3c da2f 653d bbf4 313d 81fa 043d
00000330: 7413 533d 6494 833d 4482 923d 82ae 833e
00000340: e1da 6f3e 93b2 1f3e fc26 2f3e d907 963e
00000350: 6e38 323e 8ca9 003e f9cb 583e 919d 423e
00000360: 4d6b 8d3d 42c9 1a3e b3f2 923d cd48 b23d
00000370: 62e1 bd3d 3d5c f63d 014d 573d 8ca5 103d
00000380: 2cd1 073d 436a ce3c e05c f53d fb08 663c
00000390: f3bf b43c ab75 0c3e 8eb7 7d3d 6a3c 173c
000003a0: 67e5 923d c204 05bd 7d64 e63d 8f46 013e
000003b0: b22b 1e3d 424e 0e3e 14bc e73d 887e 053e
000003c0: 7f44 c33d 3581 973d c623 f23c 0ce1 f83d
000003d0: f4db 173e 210b 953d 7c01 ec3d 3260 d23d
000003e0: 4ac7 9f3d bd11 f43d 529e e43d ab16 d13d
000003f0: 4b81 3a3e 68e7 f33d 4f1a f03d 878e de3d

model.11.bias f4 [32]
-0.040380437 0.023682576 0.056623857 0.040686917 0.018260043 -0.02197575 0.009680936 0.03089868
-0.020868827 0.019309066 0.008870183 -0.0021329944 0.020090898 -0.056884106 0.050779223 -0.03524617
0.0030088935 -0.024457622 -0.048786223 0.018070884 -0.023844276 0.0540834 0.03407613 0.01838995
0.025421198 0.040420953 0.01713515 0.02235318 0.054987844 -0.04352626 0.028541554 -0.006171787
00000000: f565 25bd f601 c23c 6bee 673d 53a7 263d
00000010: 1696 953c 7d06 b4bc ca9c 1e3c 3b1f fd3c
00000020: 1af5 aabc 0c2e 9e3c 3e54 113c b5c9 0bbb
00000030: ab95 a43c 4fff 68bd e0fd 4f3d 4a5e 10bd
00000040: db30 453b 5a5b c8bc 10d4 47bd 6409 943c
00000050: 1255 c3bc 8e86 5d3d 6993 0b3d 85a6 963c
00000060: 1e40 d03c 7190 253d 045f 8c3c 041e b73c
00000070: ef3a 613d 9748 32bd facf e93c b43c cabb

model.12.weight f4 [32]
1.0771519 1.1127928 1.4290481 1.009068 0.9481664 0.7305215 0.9468477 0.7646415
0.7596421 0.9817348 0.89520097 0.7035004 1.0823138 0.8069122 0.83384645 1.050383
0.9323509 1.0026026 0.89768684 1.0593333 0.74114484 1.0285556 1.0036417 0.82970256
0.879403 0.63694227 0.8721551 1.0726883 0.9850459 0.9018951 1.024023 1.0395894
00000000: 1de0 893f ff6f 8e3f 0ceb b63f 2429 813f
00000010: 08bb 723f 7503 3b3f 9c64 723f 8cbf 433f
00000020: e877 423f f952 7b3f e42b 653f 9a18 343f
00000030: 4289 8a3f cc91 4e3f f676 553f f372 863f
00000040: 8cae 6e3f 4855 803f cece 653f 3c98 873f
00000050: abbb 3d3f b6a7 833f 5577 803f 6367 543f
00000060: 8e20 613f a60e 233f 8e45 5f3f da4d 893f
00000070: f82b 7c3f 99e2 663f 3013 833f 4411 853f

model.12.bias f4 [32]
-0.23924226 -0.10568541 -0.22565453 0.058183737 -0.16973694 -0.3028344 -0.036732584 -0.17471196
-0.0017045136 0.014640023 -0.39230973 -0.15502547 -0.14109275 0.0025434522 0.039268013 -0.101054594
-0.1578166 0.055801265 0.105695136 -0.27734247 -0.2024499 -0.1055541 -0.32105735 0.09122483
0.06075708 -0.15060218 -0.17371146 0.28570923 -0.14641479 -0.4498387 -0.036358137 -0.10416647
00000000: ecfb 74be 9871 d8bd fb11 67be 1252 6e3d
00000010: 85cf 2dbe 1c0d 9bbe e874 16bd b1e7 32be
00000020: fc69 dfba b5dc 6f3c d2dc c8be ffbe 1ebe
00000030: 9e7a 10be 0cb0 263b 7fd7 203d b6f5 cebd
00000040: ad9a 21be de8f 643d b176 d83d d5ff 8dbe
00000050: 074f 4fbe bf2c d8bd a161 a4be 15d4 ba3d
00000060: 6adc 783d 7537 1abe 6be1 31be 7b48 923e
00000070: c2ed 15be 4251 e6be 45ec 14bd 3b55 d5bd
