experiments/gan_modified_srgan/saved_models/discriminator_2.pth (torch_old, 427594 bytes, 45 tensors)

model.0.weight f4 [64, 3, 3, 3]
0.3326112 -0.13546054 0.256605 -0.25032002 -0.22590126 0.12367262 -0.12022161 -0.280082
0.38535136 0.3109241 0.2007185 0.1006345 -0.050132923 -0.17264894 -0.03473611 -0.16591913
0.0359868 0.23703083 -0.011559406 -0.016466277 0.19369179 -0.20342928 0.07869092 0.1570628
-0.26783946 -0.26216173 0.41253138 0.024223555 -0.04507569 0.12502916 -0.037015922 -0.055091124
0.30543932 0.18985881 0.18291476 0.20728396 0.09033429 -0.054105006 -0.057911135 -0.16865242
0.010899001 0.010345082 0.16304547 0.035802994 0.043869272 -0.14795977 0.2098995 0.048379943
0.14813097 0.13574992 -0.07494993 0.055112973 -0.049740132 -0.040541224 0.04177075 -0.049074024
-0.17718881 0.19037496 0.1901751 0.114957206 -0.13754939 0.08429283 -0.113911115 -0.097035326
-0.081152 -0.116161846 0.016191365 -0.038677983 0.22392775 0.07316792 0.1699975 0.15245628
0.06169981 0.024979696 -0.22669637 0.11378551 -0.014877497 -0.087127626 -0.08318348 0.0007891284
0.06127039 -0.040548988 0.16284455 0.12656605 -0.21507056 -0.21057601 -0.19185098 0.17036107
0.51284933 -0.13982019 0.19466387 0.051253445 0.2919409 0.056355547 -0.11698874 -0.18278928
-0.22295362 0.37258115 -0.094598204 -0.15643784 0.29756996 -0.10290278 -0.16317837 0.06727775
-0.2488308 0.092702255 0.44105062 0.015991718 0.19244288 0.1353433 -0.24123828 0.3127634
0.23215365 0.06146705 -0.28172308 0.01339384 0.13950509 -0.06639951 -0.23210455 -0.18859139
0.12426148 0.2562452 0.036110163 -0.03128599 0.18540303 0.05242419 0.12324314 -0.21960376
-0.2001519 0.2669798 0.11150567 0.17740454 -0.39190185 -0.084257014 0.03358939 0.1321182
0.043259755 -0.04404719 0.21222249 0.44150996 0.40712374 -0.42735827 -0.30722076 -0.3306656
0.14971735 -0.38172168 -0.15971185 0.13648663 0.5013554 0.36606702 -0.22103348 -0.02788987
-0.18221954 0.16028705 -0.190948 -0.035719138 0.26675498 0.239485 0.28096828 -0.41278476
-0.25766486 -0.17920814 -0.1097779 -0.11038631 -0.15900198 -0.111942865 0.19376405 0.16811988
-0.18294522 -0.17803253 0.089455694 -0.017885765 -0.097051784 -0.28139004 0.023162346 0.020582492
0.10338046 -0.18509158 -0.16885881 -0.017322868 0.08090615 -0.20583367 -0.17538251 0.09428762
0.18183596 -0.028156511 -0.26813373 -0.018481752 0.081237756 0.173994 0.12464257 -0.011357236
-0.03575626 -0.20407689 -0.027864134 -0.043857217 0.068063416 0.24605732 0.2166934 -0.07632948
0.1891815 -0.103981785 -0.18474557 -0.1536552 -0.016403355 -0.054265514 0.13790438 -0.2402352
0.077105716 0.09157842 -0.09872063 -0.038415816 -0.051134966 -0.04187804 0.075348616 0.10033351
-0.06033842 -0.19885288 0.1731101 0.1277681 -0.19442438 0.07971496 0.2697833 -0.11822118
0.4007295 0.06919939 -0.030500695 0.16701078 0.11928061 -0.31518692 0.06966702 0.22354993
-0.025664607 -0.005542813 0.18627349 0.0042354083 0.33506244 -0.06574172 -0.36562836 -0.04105884
0.06427472 -0.2881979 0.15257941 0.08265968 0.3147789 0.14667869 0.11795334 0.15330814
-0.04853058 -0.18184315 -0.3040357 -0.25391766 -0.130301 -0.06508006 0.07843992 0.28145257
00000000: 044c aa3e 2bb6 0abe bb61 833e f229 80be
00000010: a952 67be 1248 fd3d bf36 f6bd e866 8fbe
00000020: c64c c53e 7231 9f3e 2789 4d3e 7619 ce3d
00000030: 2e58 4dbd e2ca 30be 7447 0ebd b4e6 29be
00000040: e566 133d 36b8 723e aa63 3dbc 49e4 86bc
00000050: 2457 463e c44f 50be b428 a13d 12d5 203e
00000060: 4122 89be 103a 86be 5037 d33e 7a70 c63c
00000070: 49a1 38bd a507 003e 029e 17bd 3ba7 61bd
00000080: 8b62 9c3e 596a 423e 024e 3b3e 3f42 543e
00000090: 2f01 b93d 369d 5dbd 3a34 6dbd 38b3 2cbe
000000a0: b991 323c 6b7e 293c 64f5 263e 29a6 123d
000000b0: 44b0 333d c482 17be e5ef 563e 0c2a 463d
000000c0: a5af 173e 0702 0b3e 597f 99bd 24be 613d
000000d0: 4fbc 4bbd 8e0e 26bd ce17 2b3d d801 49bd
000000e0: fc70 35be a7f1 423e 43bd 423e af6e eb3d
000000f0: bfd9 0cbe b8a1 ac3d 3b4a e9bd 75ba c6bd
00000100: 0533 a6bd 43e6 edbd c1a3 843c ce6c 1ebd
00000110: 514d 653e 10d9 953d d313 2e3e 801d 1c3e
00000120: f1b8 7c3d 38a2 cc3c 1823 68be 6108 e93d
00000130: bfc0 73bc f86f b2bd 1a5c aabd 83dd 4e3a
00000140: a9f6 7a3d b216 26bd b9c0 263e 889a 013e
00000150: 753b 5cbe 3da1 57be 9574 44be 2273 2e3e
00000160: 184a 033f 062d 0fbe f755 473e 22ef 513d
00000170: 4779 953e 13d5 663d cb97 efbd 1d2d 3bbe
00000180: f44d 64be f5c2 be3e b4bc c1bd 3e31 20be
00000190: 175b 983e b1be d2bd 3b18 27be ebc8 893d
000001a0: 80cd 7ebe aeda bd3d 63d1 e13e 1001 833c
000001b0: bf0f 453e 6f97 0a3e 2b07 77be 8622 a03e
000001c0: b0b9 6d3e e0c4 7b3d 023e 90be d671 5b3c
000001d0: 6cda 0e3e 77fc 87bd d1ac 6dbe 1a1e 41be
000001e0: ce7c fe3d 9232 833e 40e8 133d bd25 00bd
000001f0: 4bda 3d3e bfba 563d e666 fc3d cfdf 60be
00000200: 9ff4 4cbe 94b1 883e 165d e43d 89a9 353e
00000210: 5ca7 c8be f18e acbd 0795 093d fe49 073e
00000220: 2431 313d d46a 34bd da50 593e 980d e23e
00000230: 8672 d03e b4ce dabe 0a4c 9dbe 004d a9be
00000240: 814f 193e 0671 c3be 818b 23be 27c3 0b3e
00000250: d458 003f 236d bb3e 9a56 62be 4c79 e4bc
00000260: c297 3abe 4a22 243e df87 43be 3b4e 12bd
00000270: 1c94 883e 8e3b 753e 13db 8f3e 8658 d3be
00000280: a6ec 83be 5782 37be 3cd3 e0bd 3812 e2bd
00000290: 6ad1 22be 4d42 e5bd 156a 463e 9e27 2c3e
000002a0: fe55 3bbe 294e 36be 8c34 b73d 2b85 92bc
000002b0: 16c3 c6bd 5b12 90be f6be bd3c 9d9c a83c
000002c0: 22b9 d33d a688 3dbe 53e9 2cbe b0e8 8dbc
000002d0: 20b2 a53d 10c6 52be 7997 33be de19 c13d
000002e0: 3533 3a3e 7ca8 e6bc d348 89be 0b67 97bc
000002f0: fb5f a63d 7c2b 323e 9b44 ff3d b313 3abc
00000300: 2875 12bd 88f9 50be 5343 e4bc a0a3 33bd
00000310: d564 8b3d 73f6 7b3e e0e4 5d3e a152 9cbd
00000320: ccb8 413e 67f4 d4bd f12d 3dbe ca57 1dbe
00000330: 5460 86bc 8445 5ebd ce36 0d3e 3700 76be
00000340: 9ae9 9d3d 778d bb3d 0b2e cabd e759 1dbd
00000350: e672 51bd 4f88 2bbd 6050 9a3d a87b cd3d
00000360: 6b25 77bd 17a0 4bbe c643 313e a4d5 023e
00000370: 2f17 47be 9941 a33d 0921 8a3e f21d f2bd
00000380: 6b2c cd3e 69b8 8d3d 98dc f9bc e004 2b3e
00000390: 6449 f43d 2e60 a1be 95ad 8e3d 46ea 643e
000003a0: 953e d2bc 7ca0 b5bb 7abe 3e3e 2ec9 8a3b
000003b0: 4e8d ab3e 98a3 86bd a433 bbbe 502d 28bd
000003c0: 77a2 833d ad8e 93be c73d 1c3e 7a49 a93d
000003d0: b32a a13e f032 163e 8591 f13d cffc 1c3e
000003e0: 00c8 46bd 1735 3abe 91aa 9bbe 7f01 82be
000003f0: a06d 05be b248 85bd 1ca5 a03d 8d1a 903e

model.0.bias f4 [64]
0.17414208 -0.8533037 -0.030984899 -0.3811566 -0.15618238 -0.11558937 -0.39404336 -0.7236083
-0.35744303 0.37680268 -0.057778195 -0.43004012 0.36431307 -0.030872732 0.032240145 0.14026166
-0.32414028 -0.43694672 -0.44533998 -0.22541088 0.27756917 -0.44669914 -0.6952688 -0.4281359
0.02915155 -0.30889648 0.1837767 -0.2960339 -0.5040013 -0.22299266 -0.17566867 -0.059966855
0.14654317 -0.26997304 -0.28135958 -0.35573822 0.1354616 -0.13355319 -0.10156766 -0.31502393
-0.07596304 0.028011516 -0.48961642 0.12970889 0.16290943 -0.6129146 0.12489301 -0.29287773
-0.18068738 -0.45214483 -0.4069599 -0.10419736 -0.085739136 -0.16446963 -0.27134427 -0.31689018
0.031703163 0.1963774 -0.10026516 -0.2518547 0.24384382 -0.09480713 0.051335286 -0.028471611
00000000: 4d52 323e 1c72 5abf 0bd4 fdbc f526 c3be
00000010: 46ee 1fbe 1fba ecbd 0dc0 c9be 653e 39bf
00000020: c602 b7be 48ec c03e d4a8 6cbd 382e dcbe
00000030: 3e87 ba3e d0e8 fcbc 3e0e 043d c1a0 0f3e
00000040: b7f5 a5be 7bb7 dfbe 9a03 e4be 1cd2 66be
00000050: 8c1d 8e3e c0b5 e4be 23fd 31bf a134 dbbe
00000060: 3bcf ee3c ae27 9ebe f62f 3c3e c191 97be
00000070: 3b06 01bf 3058 64be 7de2 33be ce9f 75bd
00000080: 6a0f 163e e839 8abe 5d0e 90be 5223 b6be
00000090: 72b6 0a3e 2bc2 08be b502 d0bd d14a a1be
000000a0: 8392 9bbd 6878 e53c 01af fabe 68d2 043e
000000b0: bbd1 263e f9e7 1cbf e8c7 ff3d 12f4 95be
000000c0: 1d06 39be 877f e7be 0c5d d0be 6d65 d5bd
000000d0: 0098 afbd ba6a 28be a3ed 8abe 6e3f a2be
000000e0: 2ddb 013d 2817 493e d257 cdbd 19f3 80be
000000f0: 32b2 793e 3e2a c2bd f344 523d 4c3d e9bc

model.2.weight f4 [64, 64, 3, 3]
0.05636878 0.070482686 0.06716843 0.20350894 0.17306224 0.18306474 0.02688862 -0.0027736656
-0.019826874 0.011349772 0.008241407 0.011190672 0.047024105 0.044741664 0.03322513 0.06055413
0.041834604 0.038645167 0.046767987 0.065212786 0.051180944 -0.1690122 -0.14209735 -0.13208984
-0.008226002 -0.053373996 0.016994325 -0.1986101 -0.06885022 -0.05857849 0.3508213 0.3934547
0.33258516 0.01867959 0.07542326 0.044148885 0.035383638 0.10054983 0.14680293 -0.24369238
-0.21536326 -0.23981647 0.022470996 0.0008140579 0.01640685 0.0159509 -0.01672378 0.0443211
-0.50497013 -0.4791205 -0.4184053 -0.39849138 -0.42197534 -0.40443715 0.014332405 0.0320349
0.004693317 -0.17650963 -0.15484479 -0.19903909 -0.1062894 -0.16863576 -0.104683444 -0.12669308
-0.1543251 -0.11185319 0.15896367 0.12726556 0.15235573 -0.0024873503 -0.008501393 -0.050600946
0.008545633 -0.025071053 -0.022459626 0.2793565 0.17602046 0.22187856 0.14429677 0.104721725
0.11513321 0.16386376 0.13000384 0.14023934 -0.13933688 -0.16004504 -0.14322141 -0.22052453
-0.25787577 -0.23711008 0.30659258 0.25490358 0.29466093 -0.24445322 -0.21932651 -0.19873896
-0.13490662 -0.09985754 -0.10843502 -0.24399243 -0.18136588 -0.16761136 -0.16571048 -0.18685262
-0.18989614 -0.13273154 -0.15638398 -0.10205856 0.18493389 0.23247813 0.1463754 0.0543347
0.037494075 0.07023026 -0.21355316 -0.17837432 -0.119723335 0.14657894 0.146772 0.12909591
-0.16461523 -0.107664615 -0.06534784 0.26286766 0.27352872 0.2998047 0.5064736 0.4987606
0.49731794 -0.3063928 -0.3410643 -0.30254406 -0.13762361 -0.17161837 -0.10886492 0.20074661
0.15822597 0.1398952 -0.21781862 -0.23213315 -0.2351494 -0.18956517 -0.24725993 -0.23930736
0.030232502 0.023421785 0.015279178 0.16758057 0.17872964 0.099307485 0.058744375 0.03872452
0.06810402 -0.098335996 -0.09818554 -0.057611633 -0.0963384 -0.088047914 -0.091897994 -0.1712692
-0.09764803 -0.09665711 0.22970554 0.22041637 0.23346257 0.14843105 0.012406748 0.088968426
0.13967049 0.038286157 0.054914173 -0.051098738 -0.073290914 -0.12704855 0.019463604 0.014899225
0.0048092906 -0.25297323 -0.25172243 -0.2545087 -0.01273193 -0.033971455 -0.06955574 0.20213938
0.1893694 0.1655733 -0.2281772 -0.27251446 -0.22984706 0.11195046 0.122599326 0.0969534
-0.1293414 -0.19397214 -0.15598156 -0.1328662 -0.14014363 -0.1310488 -0.01470918 -0.05210812
-0.0807114 0.069983274 0.051101837 0.10305969 0.1909232 0.15394127 0.1182034 -0.055680566
-0.058864832 -0.048328966 -0.10593386 -0.10888311 -0.08154664 -0.14177068 -0.117273964 -0.1624615
0.3728739 0.385586 0.32356048 -0.4354106 -0.40040848 -0.4199799 -0.14664821 -0.14142513
-0.13927904 -0.02047521 0.011959657 -0.025352525 -0.15688382 -0.110924646 -0.15717925 -0.14688775
-0.08717396 -0.1137843 0.39484626 0.43430752 0.4078938 -0.28163135 -0.2983794 -0.30787253
-0.088855974 -0.06451855 -0.06409637 -0.19905633 -0.24625695 -0.14412326 -0.14683932 -0.17814825
-0.07523527 -0.17900686 -0.17929102 -0.19222876 -0.012808287 0.00533486 -0.0033174914 -0.20147075
00000000: f3e2 663d 3a59 903d 9a8f 893d a664 503e
00000010: 3a37 313e 5375 3b3e 8645 dc3c 63c6 35bb
00000020: f86b a2bc 65f4 393c f706 073c 1559 373c
00000030: 599c 403d 0943 373d 1317 083d 9b07 783d
00000040: c35a 2b3d 654a 1e3d ca8f 3f3d 488e 853d
00000050: 1ca3 513d 8911 2dbe f881 11be 8f42 07be
00000060: 5ac6 06bc b19e 5abd af37 8b3c 7260 4bbe
00000070: 5801 8dbd 00f0 6fbd d99e b33e e572 c93e
00000080: 9a48 aa3e f105 993c 8377 9a3d 76d5 343d
00000090: 6fee 103d 12ed cd3d 8253 163e 7f8a 79be
000000a0: 3088 5cbe 7392 75be 1815 b83c 8066 553a
000000b0: a967 863c 76ab 823c 4f00 89bc 0b8a 353d
000000c0: b945 01bf 484f f5be 3839 d6be 1007 ccbe
000000d0: 270d d8be 6312 cfbe 77d2 6a3c 0737 033d
000000e0: 66ca 993b f1be 34be a28f 1ebe e7d0 4bbe
000000f0: 42ae d9bd daae 2cbe 4664 d6bd d5bb 01be
00000100: 6607 1ebe 4913 e5bd 5fc7 223e e751 023e
00000110: 2403 1c3e d002 23bb 6d49 0bbc f042 4fbd
00000120: fc02 0c3c cf61 cdbc 40fd b7bc d107 8f3e
00000130: b53e 343e 2234 633e 88c2 133e 5878 d63d
00000140: f6ca eb3d e7cb 273e ba1f 053e e79a 0f3e
00000150: 54ae 0ebe d9e2 23be a2a8 12be 2fd1 61be
00000160: 4b08 84be fccc 72be b4f9 9c3e b982 823e
00000170: ccdd 963e f251 7abe 2197 60be 3a82 4bbe
00000180: f624 0abe 1c82 ccbd 2e13 debd 27d9 79be
00000190: fab7 39be 50a2 2bbe 02b0 29be 4b56 3fbe
000001a0: 2274 42be c7ea 07be 1f23 20be 1404 d1bd
000001b0: 4f5f 3d3e bf0e 6e3e 6fe3 153e 108e 5e3d
000001c0: 6393 193d e2d4 8f3d aead 5abe c2a7 36be
000001d0: 8231 f5bd ca18 163e 664b 163e b831 043e
000001e0: e590 28be 447f dcbd 17d5 85bd 9796 863e
000001f0: f50b 8c3e 0080 993e 41a8 013f 8d5d ff3e
00000200: 75a0 fe3e 84df 9cbe fb9f aebe 0ee7 9abe
00000210: 34ed 0cbe babc 2fbe 92f4 debd 8590 4d3e
00000220: fd05 223e b040 0f3e d80b 5fbe 50b4 6dbe
00000230: 01cb 70be 5f1d 42be b531 7dbe fd0c 75be
00000240: 27aa f73c 0bdf bf3c 8455 7a3c 3e9a 2b3e
00000250: e704 373e b961 cb3d f19d 703d 9a9d 1e3d
00000260: 1f7a 8b3d 6264 c9bd 8015 c9bd 2dfa 6bbd
00000270: 114d c5bd 7752 b4bd 0435 bcbd 3161 2fbe
00000280: b1fb c7bd 2af4 c5bd ee37 6b3e d4b4 613e
00000290: d010 6f3e 4ffe 173e ac45 4b3c 1435 b63d
000002a0: c805 0f3e f2d1 1c3d afed 603d e94c 51bd
000002b0: 8c19 96bd 0419 02be 2372 9f3c e11b 743c
000002c0: 4197 9d3b b585 81be c3e1 80be f74e 82be
000002d0: 9699 50bc a725 0bbd 3d73 8ebd a0fd 4e3e
000002e0: 0dea 413e 0c8c 293e 49a7 69be 0487 8bbe
000002f0: 075d 6bbe 4846 e53d 5b15 fb3d 818f c63d
00000300: 1272 04be a2a0 46be a1b9 1fbe 140e 08be
00000310: d081 0fbe a831 06be c6fe 70bc 536f 55bd
00000320: 054c a5bd 6453 8f3d 2950 513d f510 d33d
00000330: 5f81 433e c8a2 1d3e a014 f23d 4e11 64bd
00000340: 401c 71bd 98f4 45bd daf3 d8bd 1cfe debd
00000350: ed01 a7bd 552c 11be 552d f0bd 4f5c 26be
00000360: 54e9 be3e 876b c53e b8a9 a53e 23ee debe
00000370: 5702 cdbe 9b07 d7be f32a 16be c0d1 10be
00000380: 2a9f 0ebe a1bb a7bc 70f2 433c 19b0 cfbc
00000390: 27a6 20be 762c e3bd 99f3 20be be69 16be
000003a0: 4388 b2bd be07 e9bd 4a29 ca3e 8e5d de3e
000003b0: 75d7 d03e fc31 90be 2fc5 98be 78a1 9dbe
000003c0: 1ffa b5bd 4d22 84bd f544 83bd 6cd5 4bbe
000003d0: c82a 7cbe 0c95 13be 0c5d 16be 7f6c 36be
000003e0: f314 9abd 934d 37be 1198 37be 9ed7 44be
000003f0: d9d9 51bc 0dd0 ae3b 456a 59bb 594e 4ebe

model.2.bias f4 [64]
0.022530615 0.03776541 0.0019119357 -0.024702657 -0.0058191475 0.033295628 0.0055890814 -0.026449736
-0.01093483 -0.0256165 0.035547573 -0.02196812 0.07674764 -0.008164674 -0.0093090115 -0.018458681
0.0037502586 -0.013459813 0.0050415797 0.023787696 0.01493232 0.029393626 -0.02105474 0.033520278
-0.016344696 0.009647186 -0.024185022 -0.0075387773 -0.018737562 0.0012413318 0.06259954 -0.017214237
-0.024481963 -0.0021108608 0.004373226 -0.040588126 0.014047924 0.004879904 0.037908226 -0.014725001
0.018058924 0.035556484 0.036341377 0.040546216 -0.027439794 -0.017161405 -0.03813915 -0.019067911
0.026125157 0.043501638 -0.061469354 0.021802692 -0.004500487 -0.0070098992 -0.007530137 -0.031697772
0.009764768 -0.0009159956 -0.033251677 0.0022088415 -0.024514498 0.0056076315 0.03356743 0.030529568
00000000: 2092 b83c e7af 1a3d eb99 fa3a 3a5d cabc
00000010: 8cae bebb ff60 083d 9d24 b73b 1ead d8bc
00000020: 0028 33bc b2d9 d1bc 559a 113d 7df6 b3bc
00000030: de2d 9d3d 20c5 05bc d384 18bc a936 97bc
00000040: e6c6 753b 8c86 5cbc d633 a53b 6ade c23c
00000050: b1a6 743c e7ca f03c fd7a acbc 8f4c 093d
00000060: 50e5 85bc 3b0f 1e3c ab1f c6bc d907 f7bb
00000070: 847f 99bc 2fb4 a23a 3034 803d df04 8dbc
00000080: 668e c8bc 5e56 0abb 474d 8f3b bc3f 26bd
00000090: 4429 663c 9ae7 9f3b a845 1b3d 2141 71bc
000000a0: 4ff0 933c ada3 113d b2da 143d ca13 263d
000000b0: 6bc9 e0bc 1396 8cbc cc37 1cbd 4f34 9cbc
000000c0: 6d04 d63c c62e 323d 4ac7 7bbd 8f9b b23c
000000d0: d278 93bb 4cb3 e5bb 5ebf f6bb 86d5 01bd
000000e0: 68fc 1f3c 6d1f 70ba e932 08bd 36c2 103b
000000f0: a1d2 c8bc 39c0 b73b 007e 093d 2519 fa3c

model.3.weight f4 [64]
0.8713723 0.7112891 0.71208674 0.3851249 0.8454791 0.6829367 1.0280945 0.651659
0.92054284 0.5933495 0.71985126 0.91356057 1.5527953 0.20974596 0.5706637 0.72527134
0.7975616 0.90561634 0.67189693 0.8280407 0.22584154 0.18402715 0.3051179 0.7307643
0.7278232 0.86576855 0.49649334 0.91085553 0.77719563 0.660766 1.2470708 0.13239013
0.64019567 0.8966676 0.58050436 0.40116954 0.27212638 0.4828428 0.78083706 1.4317695
0.72324026 0.16054437 0.86832225 0.16287492 0.5230491 0.93421364 0.23424941 0.8288513
0.36097187 0.76218176 1.1490165 0.397788 0.19403483 0.46946922 0.757266 0.61936307
0.2742212 0.59253263 0.7741282 0.31712878 1.1730256 0.61878 0.40899205 0.255923
00000000: 4112 5f3f 0b17 363f 514b 363f 172f c53e
00000010: 5171 583f f1d4 2e3f 9a98 833f 20d3 263f
00000020: b2a8 6b3f c1e5 173f 2c48 383f 1bdf 693f
00000030: ffc1 c63f a5c7 563e 0417 123f 62ab 393f
00000040: ff2c 4c3f 79d6 673f 7001 2c3f 7afa 533f
00000050: 0143 673e 9d71 3c3e 6a38 9c3e 5f13 3b3f
00000060: 9f52 3a3f 02a3 5d3f 6034 fe3e d42d 693f
00000070: 4bf6 463f f627 293f 04a0 9f3f 4791 073e
00000080: dde3 233f 028c 653f ef9b 143f 1866 cd3e
00000090: 2654 8b3e 2c37 f73e f0e4 473f 3944 b73f
000000a0: 4626 393f be65 243e 5e4a 5e3f afc8 263e
000000b0: 8ce6 053f a028 6f3f 14df 6f3e 992f 543f
000000c0: 4ed1 b83e 581e 433f f912 933f deaa cb3e
000000d0: 11b1 463e 455e f03e 2fdc 413f 948e 1e3f
000000e0: b966 8c3e 38b0 173f 442d 463f b45e a23e
000000f0: b425 963f 5e68 1e3f 6867 d13e 5708 833e

model.3.bias f4 [64]
-0.084789746 -0.0854593 -0.16899641 -0.48015743 -0.34385976 -0.30555698 -0.41338253 -0.22384782
0.15561391 -0.30009308 -0.22041373 0.086431175 -0.08845303 -0.6204909 -0.3576714 -0.13271502
-0.18157394 -0.31553313 -0.47810298 -0.23259972 -0.5749183 -0.50866455 -0.51179165 -0.3833868
-0.4122352 -0.33269688 -0.3649458 -0.23562084 -0.34771782 -0.37393987 -0.3247015 -0.52619874
-0.38805494 -0.22584045 -0.13553828 -0.47377425 -0.6399842 -0.40884355 -0.27622122 -0.17842235
-0.4660366 -0.5936013 -0.20720074 -0.5095527 -0.36850345 -0.22851379 -0.48805252 -0.09368113
-0.5498587 -0.29363868 -0.16729133 -0.24507917 -0.6168469 -0.32016623 -0.28791118 -0.4048239
-0.45697403 -0.38902098 -0.19281381 -0.43471378 -0.2594352 -0.37760055 -0.34704396 -0.45286086
00000000: 3fa6 adbd 4905 afbd 650d 2dbe 32d7 f5be
00000010: 630e b0be f771 9cbe e0a6 d3be 5d38 65be
00000020: 4159 1f3e cda5 99be 23b4 61be d402 b13d
00000030: dd26 b5bd 7ed8 1ebf b520 b7be 72e6 07be
00000040: 85ee 39be 8f8d a1be eac9 f4be 9f2e 6ebe
00000050: d92d 13bf d737 02bf c704 03bf 464b c4be
00000060: 7e10 d3be 3f57 aabe 2dda babe 9746 71be
00000070: 1208 b2be 0c75 bfbe 463f a6be f6b4 06bf
00000080: 23af c6be b842 67be 8cca 0abe 8a92 f2be
00000090: 01d6 23bf f153 d1be de6c 8dbe 59b4 36be
000000a0: 599c eebe 41f6 17bf 6e2c 54be 0c72 02bf
000000b0: 7cac bcbe 85ff 69be 05e2 f9be e4db bfbd
000000c0: 8ac3 0cbf cf57 96be 6b4e 2bbe 09f6 7abe
000000d0: aee9 1dbf d4ec a3be 1869 93be 1445 cfbe
000000e0: 80f8 e9be c22d c7be fc70 45be ce92 debe
000000f0: b1d4 84be dc54 c1be bfaf b1be 61dd e7be

model.3.running_mean f4 [64]
-6.8600454 -21.851776 -15.386778 -12.384105 16.36457 -16.027449 7.177696 -14.441387
-6.9772778 -14.425968 -17.865349 -6.3806524 5.7616367 0.41575798 -15.051749 -10.0295105
0.15001154 18.108421 -10.610788 -6.075459 -4.1150246 -4.1998096 -6.064543 -5.0654106
9.24404 -4.3021336 -16.022758 11.774438 5.742039 2.1112473 4.1852365 -5.7145343
7.646438 -6.5849066 5.092185 -5.7401633 0.036169413 -16.884865 -9.075783 7.2284193
14.310751 0.6928262 -11.503245 -8.844997 0.06361987 15.688591 -2.4158359 -10.780673
-8.316378 7.3027425 0.96817845 -3.534014 -6.4853263 -2.7153628 13.734071 0.86776096
-6.8549027 -3.3295884 -16.027538 -3.793497 0.8148056 -6.304439 -3.262316 -2.8664236
00000000: 7e85 dbc0 70d0 aec1 3e30 76c1 4b25 46c1
00000010: a4ea 8241 3738 80c1 b0af e540 ec0f 67c1
00000020: dc45 dfc0 c4d0 66c1 3cec 8ec1 4e2e ccc0
00000030: 545f b840 3bde d43e f7d3 70c1 e078 20c1
00000040: a09c 193e 0cde 9041 cac5 29c1 296a c2c0
00000050: 48ae 83c0 d764 86c0 bc10 c2c0 d817 a2c0
00000060: 96e7 1341 14ab 89c0 9c2e 80c1 1964 3c41
00000070: c9be b740 ad1e 0740 75ed 8540 77dd b6c0
00000080: 9faf f440 8eb7 d2c0 2ef3 a240 6baf b7c0
00000090: 6126 143d 3414 87c1 6836 11c1 364f e740
000000a0: d6f8 6441 0f5d 313f 4b0d 38c1 1c85 0dc1
000000b0: 224b 823d 7804 7b41 0e9d 1ac0 a37d 2cc1
000000c0: e20f 05c1 11b0 e940 8bda 773f 492d 62c0
000000d0: cb87 cfc0 81c8 2dc0 c1be 5b41 9525 5e3f
000000e0: 5d5b dbc0 fa17 55c0 6638 80c1 a8c8 72c0
000000f0: 1a97 503f f7bd c9c0 c9c9 50c0 7c73 37c0

model.3.running_var f4 [64]
98.60677 486.62302 236.34285 115.47264 398.28165 143.88425 123.05638 483.40182
120.02865 172.7741 542.2761 258.88025 130.92296 181.466 144.78578 101.908714
146.02832 565.6647 85.26262 92.02215 322.23398 271.95172 558.48035 435.8837
363.9689 190.60193 192.0501 468.80884 293.8733 178.61328 280.9481 387.7677
64.53259 98.98228 248.47095 139.31667 176.27696 337.96835 334.2757 86.61418
498.33344 68.11882 593.50183 133.53047 268.22897 131.29654 499.59003 140.64859
76.10259 317.00226 93.10917 443.9668 211.54745 417.0769 529.30334 114.22571
439.11285 91.63392 189.5158 197.57869 190.44673 346.19153 319.20688 531.6615
00000000: ab36 c542 bf4f f343 c557 6c43 fef1 e642
00000010: 0d24 c743 5ee2 0f43 de1c f642 6fb3 f143
00000020: ab0e f042 2bc6 2c43 ac91 0744 ac70 8143
00000030: 47ec 0243 4c77 3543 29c9 1043 43d1 cb42
00000040: 4007 1243 8a6a 0d44 7686 aa42 570b b842
00000050: f31d a143 d2f9 8743 be9e 0b44 1df1 d943
00000060: 05fc b543 189a 3e43 d30c 4043 8867 ea43
00000070: c8ef 9243 009d 3243 5b79 8c43 44e2 c143
00000080: b010 8142 edf6 c542 9078 7843 1151 0b43
00000090: e746 3043 f3fb a843 4a23 a743 763a ad42
000000a0: ae2a f943 d63c 8842 1e60 1444 cd87 0543
000000b0: 4f1d 8643 ea4b 0343 86cb f943 0aa6 0c43
000000c0: 8734 9842 4a80 9e43 e537 ba42 c0fb dd43
000000d0: 268c 5343 d889 d043 6a53 0444 9073 e442
000000e0: 728e db43 9144 b742 0b84 3d43 2594 4543
000000f0: 5d72 3e43 8418 ad43 7b9a 9f43 56ea 0444

model.5.weight f4 [32, 64, 3, 3]
-0.0965283 -0.09154476 -0.111108154 -0.04349596 -0.0046192356 -0.028252356 -0.19727795 -0.193419
-0.20574227 -0.011925563 0.044500243 -0.01837959 0.07280576 0.041483913 0.028190471 0.06386203
0.10735254 0.058356237 0.029351912 0.067611 0.049141023 0.034324188 0.039379116 0.062695675
0.028917337 0.10276448 0.058044348 0.02082942 0.09957873 0.04051532 0.061696626 0.057444386
0.088295445 0.029533014 0.053553045 0.08216186 0.004635776 -0.017437566 -0.018808706 -0.010084546
-0.046693083 -0.024374945 -0.029006075 -0.028821312 -0.021899067 0.08409301 0.04257492 0.01401535
0.0603384 0.021955077 0.00759494 0.021852314 0.005309859 0.053049278 -0.06604998 -0.11819873
-0.06356002 -0.14657356 -0.12213596 -0.06617696 -0.06405545 -0.14475079 -0.058175903 -0.12477873
-0.08389656 -0.087625846 -0.092840225 -0.12336258 -0.042502627 -0.02580166 -0.083076574 -0.057109833
-0.061361257 0.010049949 -0.011582502 -0.1620315 -0.18595618 -0.15919116 -0.014356027 0.039997913
-0.006371399 0.092998326 0.08628766 0.030061563 0.04092516 0.07501701 0.09319808 0.028311692
0.07153207 0.03732283 -0.09719306 -0.058956873 -0.09266861 -0.050216846 0.02053188 -0.018874902
-0.033501394 0.02080107 -0.017844185 0.004876675 -0.04389512 0.013264953 -0.00027046254 -0.050818376
-0.060254395 -0.072832204 -0.08046097 -0.03619275 -0.050929174 -0.008912039 -0.029337151 0.00016651105
0.0027865283 -0.04550088 -0.08699256 -0.15098737 -0.06241653 -0.009591771 0.023997033 0.033758774
0.01963557 0.023276376 0.039618876 -0.016732207 0.041453876 0.008375435 0.037710406 0.040032953
0.026745064 0.047983736 0.055077437 0.0016484322 0.04592785 0.026619736 0.068620265 -0.024726585
-0.08104595 -0.097193986 0.0010984897 -0.00010286214 -0.04943369 -0.11143162 -0.17317845 -0.10440171
0.11142462 0.054598052 0.12812652 0.13056087 0.1599014 0.07722169 0.14878453 0.08802545
0.1193682 -0.032833934 -0.025418196 -0.031579763 -0.04802376 0.0037987547 -0.065025546 -0.05111988
-0.0015695193 0.0095153805 0.011214465 0.022771152 -0.011849863 -0.023339747 0.008860869 0.022271995
-0.05021251 -0.074391626 -0.11398375 0.0034067954 0.023160527 0.018876724 -0.06983068 -0.09664069
-0.09094197 -0.07314543 -0.06710896 -0.04865844 0.034671433 0.0751691 0.06169604 0.06004162
0.04646486 0.05741376 0.0037273085 0.04677229 0.035525173 0.07673257 0.028031662 0.060797267
0.04113906 0.023043605 0.016989512 -0.017552208 0.04151342 -0.0034751364 0.122232 0.14160338
0.083387226 0.103575066 0.15688805 0.14405142 0.03317391 0.06828738 0.056802895 -0.18270086
-0.22981146 -0.18207069 -0.18182203 -0.19359487 -0.2283859 -0.10389659 -0.17334859 -0.14504023
0.09237147 0.14441323 0.121215805 0.1091554 0.13692164 0.09124807 0.084927656 0.14231007
0.11215153 -0.116959535 -0.09932826 -0.11197772 -0.042198073 -0.084137805 -0.026624233 0.033282306
0.025660956 -0.020559007 -0.01239172 -0.0009873941 0.04817287 0.038982473 0.05728224 0.012486863
-0.02703743 0.06024848 0.00043915387 0.110988036 0.1076583 0.12433154 0.18091571 0.13774256
0.16796485 0.1186707 0.11491026 0.16005273 0.1461494 0.1406516 0.10773782 0.123561926
00000000: a1b0 c5bd d27b bbbd ac8c e3bd d228 32bd
00000010: f55c 97bb 7c71 e7bc 3b03 4abe a10f 46be
00000020: 1aae 52be 7063 43bc e345 363d cb90 96bc
00000030: 301b 953d 09eb 293d b4ef e63c 19ca 823d
00000040: a6db db3d f306 6f3d 6c73 f03c a377 8a3d
00000050: 1948 493d 8597 0c3d ff4b 213d 9766 803d
00000060: 0de4 ec3c 2f76 d23d e9bf 6d3d 76a2 aa3c
00000070: efef cb3d 64f3 253d 9ab5 7c3d ce4a 6b3d
00000080: 3ed4 b43d 38ef f13c 705a 5b3d 7a44 a83d
00000090: b5e7 973b 3ad9 8ebc b714 9abc a739 25bc
000000a0: 3f41 3fbd f7ad c7bc 269e edbc ac1a ecbc
000000b0: ac65 b3bc f538 ac3d 0a63 2e3d a3a0 653c
000000c0: 6625 773d 22db b33c f9de f83b a003 b33c
000000d0: 53fe ad3b 334a 593d 3645 87bd 2d12 f2bd
000000e0: c12b 82bd 6117 16be 6b22 fabd c987 87bd
000000f0: 812f 83bd 8d39 14be db49 6ebd fe8b ffbd
00000100: f6d1 abbd 2e75 b3bd 0423 bebd 85a5 fcbd
00000110: 3c17 2ebd 015e d3bc 0d24 aabd 00ec 69bd
00000120: f155 7bbd 8ba8 243c 89c4 3dbc 96eb 25be
00000130: 4c6b 3ebe 0203 23be 8b35 6bbc dad4 233d
00000140: 2bc7 d0bb e875 be3d 96b7 b03d ab43 f63c
00000150: 24a1 273d 85a2 993d a3de be3d eced e73c
00000160: 687f 923d d3df 183d 280d c7bd c37c 71bd
00000170: 0ac9 bdbd 2eb0 4dbd 7932 a83c 8a9f 9abc
00000180: c238 09bd 0167 aa3c f82d 92bc 84cc 9f3b
00000190: 5fcb 33bd 3f55 593c decc 8db9 ee26 50bd
000001a0: 50cd 76bd 0d29 95bd b9c8 a4bd d93e 14bd
000001b0: 1c9b 50bd cd03 12bc 7754 f0bc 7899 2e39
000001c0: 309e 363b 215f 3abd 2829 b2bd 6f9c 1abe
000001d0: 7aa8 7fbd ce26 1dbc 6d95 c43c a446 0a3d
000001e0: c6da a03c 19ae be3c 6747 223d fb11 89bc
000001f0: 8acb 293d 1f39 093c 3a76 1a3d 98f9 233d
00000200: 7718 db3c 988a 443d e198 613d 3510 d83a
00000210: d71e 3c3d a211 da3c c888 8c3d 688f cabc
00000220: 6bfb a5bd a40d c7bd 33fb 8f3a b1b7 d7b8
00000230: fb7a 4abd 4336 e4bd b155 31be 90d0 d5bd
00000240: 9732 e43d 35a2 5f3d 9933 033e c0b1 053e
00000250: 31bd 233e 6826 9e3d f95a 183e b046 b43d
00000260: 5177 f43d e07c 06bd d239 d0bc c859 01bd
00000270: 90b4 44bd 87f4 783b 1d2c 85bd 1463 51bd
00000280: 54b8 cdba 66e6 1b3c e0bc 373c 918a ba3c
00000290: ee25 42bc ff32 bfbc 2e2d 113c c273 b63c
000002a0: a2ab 4dbd a35a 98bd 5070 e9bd 8b44 5f3b
000002b0: 25bb bd3c 5ca3 9a3c 6303 8fbd 8eeb c5bd
000002c0: c93f babd 45cd 95bd 6c70 89bd 134e 47bd
000002d0: a203 0e3d 42f2 993d fdb4 7c3d 34ee 753d
000002e0: f051 3e3d b12a 6b3d dc45 743b 4d94 3f3d
000002f0: d882 113d f725 9d3d a8a2 e53c 8e06 793d
00000300: 6e81 283d f1c5 bc3c 972d 8b3c a6c9 8fbc
00000310: fa09 2a3d 1dbf 63bb c554 fa3d 7a00 113e
00000320: ecc6 aa3d 2a1f d43d 43a7 203e 3782 133e
00000330: 5ee1 073d 41da 8b3d 27aa 683d ef15 3bbe
00000340: b253 6bbe bd70 3abe 8e2f 3abe bc3d 46be
00000350: fedd 69be bcc7 d4bd 4b82 31be 6d85 14be
00000360: 412d bd3d 10e1 133e fe3f f83d de8c df3d
00000370: 3035 0c3e 45e0 ba3d 8dee ad3d bbb9 113e
00000380: b4af e53d 7b88 efbd 9d6c cbbd 9354 e5bd
00000390: e3d7 2cbd 7150 acbd 101b dabc 0753 083d
000003a0: ed36 d23c 5d6b a8bc a406 4bbc 736b 81ba
000003b0: ea50 453d 16ac 1f3d c8a0 6a3d b395 4c3c
000003c0: 9a7d ddbc 1cc7 763d 3c3e e639 b24d e33d
000003d0: f47b dc3d 89a1 fe3d f841 393e 630c 0d3e
000003e0: fafe 2b3e a009 f33d 1256 eb3d dde4 233e
000003f0: 30a8 153e f906 103e a5a5 dc3d 090e fd3d

model.5.bias f4 [32]
-0.017513454 -0.008409674 0.036050282 -0.018472612 -0.020482931 -0.0137217725 0.014400905 -0.012496755
-0.006673331 0.03662205 0.035749044 0.022112025 0.036180526 0.0041795145 -0.02574466 0.04119604
0.003215876 -0.015566074 0.024660433 0.0071286825 -0.027704071 -0.0028108084 -0.02552278 -0.014902564
-0.009189603 0.0232031 0.04188912 0.0074427896 0.022878466 -0.0007884499 -0.006435911 -0.026871942
00000000: 6078 8fbc bbc8 09bc 76a9 133d e053 97bc
00000010: d2cb a7bc 49d1 60bc c6f1 6b3c 31bf 4cbc
00000020: f5ab dabb 0101 163d 976d 123d 4724 b53c
00000030: 0832 143d 4ff4 883b 77e6 d2bc 2ebd 283d
00000040: 72c1 523b d908 7fbc ad04 ca3c b997 e93b
00000050: a6f3 e2bc 8a35 38bb 2615 d1bc e229 74bc
00000060: fd8f 16bc 6d14 be3c ed93 2b3d a5e2 f33b
00000070: 9f6b bb3c faaf 4eba 56e4 d2bb 8c22 dcbc

model.6.weight f4 [32]
0.24794684 0.60415834 0.44011685 0.4429429 0.850993 0.83973646 1.2196386 0.80164725
0.52075005 0.8238887 0.7865295 0.9488257 0.6343082 1.4451932 1.0362922 1.0672146
0.6808837 0.59372616 1.1283717 0.6555929 0.49951538 0.520062 0.8810776 0.8788943
0.647015 0.5585605 1.0640416 1.2789779 0.83382255 0.9831331 0.9325074 1.1904949
00000000: c7e5 7d3e 1faa 1a3f ff56 e13e 69c9 e23e
00000010: adda 593f f8f8 563f 1e1d 9c3f c138 4d3f
00000020: e04f 053f 5fea 523f ff59 493f 3ee6 723f
00000030: 0662 223f 17fc b83f 39a5 843f 7d9a 883f
00000040: 654e 2e3f 70fe 173f 7c6e 903f f0d4 273f
00000050: 7bc0 ff3e c922 053f 4d8e 613f 38ff 603f
00000060: c6a2 253f d2fd 0e3f 8432 883f 8cb5 a33f
00000070: 6575 553f 9cae 7b3f ceb8 6e3f 2362 983f

model.6.bias f4 [32]
-0.5341883 -0.45278585 -0.51334304 -0.4762239 -0.16080692 -0.3270518 -0.32812613 -0.29612595
-0.5188597 -0.3519754 -0.22557439 -0.27957094 -0.33617544 -0.14211152 -0.3343778 -0.30119762
-0.32364604 -0.37901193 0.058981624 -0.42481086 -0.35375738 -0.48579648 -0.20700522 0.07348126
-0.30903244 -0.4704702 -0.021194704 0.11728151 -0.34381136 -0.28559753 -0.33899155 -0.04443895
00000000: 90c0 08bf 8cd3 e7be 736a 03bf 9ed3 f3be
00000010: 92aa 24be 5573 a7be 2600 a8be d29d 97be
00000020: fdd3 04bf 1f36 b4be f9fc 66be ec23 8fbe
00000030: 301f acbe af85 11be 9133 abbe 9336 9abe
00000040: efb4 a5be da0d c2be b796 713d cf80 d9be
00000050: b01f b5be 51ba f8be 2df9 53be 587d 963d
00000060: 8039 9ebe 78e1 f0be 84a0 adbc 4a31 f03d
00000070: 0b08 b0be d739 92be 4d90 adbe 9e05 36bd

model.6.running_mean f4 [32]
-1.9799435 -0.39324066 -1.9500318 -3.0015872 -1.4956776 1.3821054 3.8813863 -2.5680509
-3.919349 -3.279768 1.3937925 -0.68467325 0.48331502 1.8507295 0.24795641 0.48318595
0.27714938 -0.73998874 -1.877275 -2.3666778 -5.364086 1.1250457 1.9485441 -1.6708039
1.8792412 -0.8698824 -0.8330831 3.8300114 -2.3642232 0.17923674 1.2228276 3.1944532
00000000: ca6e fdbf d756 c9be a49a f9bf 011a 40c0
00000010: 5d72 bfbf d4e8 b03f a268 7840 f25a 24c0
00000020: 9dd6 7ac0 b8e7 51c0 cb67 b23f bf46 2fbf
00000030: 1175 f73e b4e4 ec3f 49e8 7d3e 2664 f73e
00000040: 86e6 8d3e e76f 3dbf 8c4a f0bf a677 17c0
00000050: 98a6 abc0 7f01 903f e569 f93f e7dc d5bf
00000060: fa8a f03f 9db0 5ebf ef44 55bf e81e 7540
00000070: 6f4f 17c0 d689 373e 9d85 9c3f ec71 4c40

model.6.running_var f4 [32]
49.312202 124.48105 25.769726 87.05494 27.477348 88.46422 106.96755 87.08222
46.049404 75.4094 69.59022 146.5895 65.683304 79.47059 58.123615 152.29102
22.391518 75.52025 41.836987 49.9142 70.99513 17.584877 173.6021 29.350595
77.29205 89.60314 71.203156 64.8224 91.642426 80.08972 224.82762 54.68891
00000000: b23f 4542 4cf6 f842 6628 ce41 211c ae42
00000010: 9cd1 db41 aeed b042 63ef d542 192a ae42
00000020: 9732 3842 9dd1 9642 312e 8b42 e996 1243
00000030: da5d 8342 f1f0 9e42 957e 6842 804a 1843
00000040: d421 b341 5e0a 9742 1359 2742 24a8 4742
00000050: 82fd 8d42 d4ad 8c41 239a 2d43 05ce ea41
00000060: 8895 9a42 cf34 b342 0468 8e42 12a5 8142
00000070: ec48 b742 f02d a042 dfd3 6043 72c1 5a42

model.8.weight f4 [32, 32, 3, 3]
0.035950597 -0.01980587 0.050304476 -0.024209067 -0.0053694756 -0.053873654 0.061961662 -0.02050451
0.06734734 0.03633955 -0.010912816 -0.04933551 -0.012278216 0.08219974 0.017524676 0.0033287131
0.006491197 0.020550206 -0.024559204 -0.017823005 -0.01276307 -0.061026197 0.013252195 0.04401224
-0.0008065876 -0.048623886 -0.05304438 -0.0047013396 0.0644885 0.012401451 0.04440905 0.080261104
0.020589957 0.08263426 -0.015657963 0.06355789 -0.08044191 -0.030206008 -0.083176665 -0.16688354
-0.1698751 -0.2133575 -0.0068646707 -0.019846212 -0.0053872145 -0.013425238 -0.036012758 -0.038529333
-0.06074237 -0.1558852 -0.080953926 -0.0819212 -0.12709771 -0.09678653 0.20086344 0.17706609
0.18802187 0.13174394 0.049208064 0.052861318 0.17417693 0.09518 0.22765517 -0.2338335
-0.20157035 -0.23480721 -0.2386705 -0.23156585 -0.22519328 -0.18178704 -0.28054893 -0.17848986
-0.2552078 -0.20477696 -0.24572806 -0.18642944 -0.22051017 -0.15004215 -0.14184226 -0.21090218
-0.22591208 -0.18184495 -0.2308918 -0.17978643 -0.22899252 -0.2418758 -0.14077584 -0.16759266
-0.19264704 -0.18726666 -0.25222665 -0.14730749 -0.14349934 -0.18347171 -0.20569946 -0.19443282
-0.20538102 -0.23131801 -0.20057435 -0.24138175 -0.2972492 -0.2849185 -0.20031512 -0.26317334
-0.24583255 -0.32437173 -0.30274788 -0.24065675 -0.12381933 -0.14999188 -0.16829574 -0.12127578
-0.18764192 -0.14756045 -0.21505424 -0.17373493 -0.19921115 0.25540146 0.19249804 0.14504175
0.0778241 0.10160169 0.04656306 0.10067859 0.046318002 0.13377155 0.4849502 0.43102574
0.44144475 -0.084590435 -0.0648239 -0.04576536 0.25387344 0.242517 0.32499242 -0.22967455
-0.1302649 -0.21091044 -0.10559701 -0.05770972 -0.065349415 -0.1598184 -0.14666167 -0.24703696
-0.13705856 -0.09708071 -0.092092216 -0.04952402 -0.0145467585 -0.08088653 -0.12155926 -0.0818458
-0.08082192 -0.1068468 -0.0803433 -0.1361604 -0.08226967 -0.08318947 -0.033019196 -0.11492138
-0.10021635 -0.16714318 0.15922554 0.12092984 0.08251811 -0.06523865 -0.11779014 -0.086036704
0.18759005 0.1394361 0.16097458 0.0032256532 0.032893933 -0.034484893 -0.092609935 -0.05205452
-0.07320725 -0.08046314 -0.046778556 -0.0021895654 -0.039272435 -0.078681536 -0.09487223 -0.05589296
-0.08897539 -0.122110456 -0.04908569 -0.06153382 -0.09143786 0.04458059 0.10128351 0.106005184
0.0031071792 -0.062590614 0.030995967 -0.0179784 -0.047875326 0.04819136 -0.28343612 -0.31939223
-0.23167786 -0.26494518 -0.3337007 -0.27722517 -0.2642355 -0.28164327 -0.28143695 0.10321038
0.15971254 0.11734262 -0.06407371 -0.043418158 -0.018905642 0.08117175 0.04764058 0.15805894
-0.20279846 -0.15321828 -0.19078594 -0.14738557 -0.19318074 -0.20672144 -0.21869804 -0.16571836
-0.22942571 0.14677769 0.15231293 0.16755305 -0.00911086 0.051031254 0.060678653 0.14745024
0.20644009 0.18105087 -0.030852929 -0.046295017 -0.008321842 -0.020722004 -0.029584661 0.0021222308
0.0042804964 -0.048978373 -0.025935696 0.057533376 0.048065744 0.12189732 -0.021681359 0.0537645
0.04142945 0.00039582019 0.0010255887 0.06288934 -0.24835157 -0.1843878 -0.20093134 -0.19427441
00000000: ef40 133d eb3f a2bc 110c 4e3d 1852 c6bc
00000010: 6df2 afbb 9faa 5cbd 83cb 7d3d 13f9 a7bc
00000020: 67ed 893d c8d8 143d abcb 32bc 0814 4abd
00000030: 922a 49bc 5658 a83d e98f 8f3c 8a26 5a3b
00000040: 1bb4 d43b e858 a83c 6230 c9bc 8d01 92bc
00000050: 321c 51bc 9bf6 79bd bc1f 593c 2e46 343d
00000060: 2d71 53ba d729 47bd 1045 59bd b20d 9abb
00000070: 8c12 843d 752f 4b3c 44e6 353d ef5f a43d
00000080: 45ac a83c 273c a93d 2145 80bc a42a 823d
00000090: babe a4bd 9772 f7bc 8758 aabd 85e3 2abe
000000a0: bdf3 2dbe 637a 5abe 08f1 e0bb 8694 a2bc
000000b0: 3b87 b0bb 88f5 5bbc 1d82 13bd efd0 1dbd
000000c0: fecc 78bd 5fa0 1fbe 2ccb a5bd 4dc6 a7bd
000000d0: e725 02be 0438 c6bd 25af 4d3e d050 353e
000000e0: ce88 403e e2e7 063e 658e 493d 1c85 583d
000000f0: 705b 323e bbed c23d 701e 693e 0d72 6fbe
00000100: 7568 4ebe 4d71 70be 0a66 74be 991f 6dbe
00000110: 1199 66be 6226 3abe 1ca4 8fbe 0cc6 36be
00000120: 99aa 82be 0db1 51be 23a0 7bbe 5ce7 3ebe
00000130: 6bcd 61be a6a4 19be 193f 11be bef6 57be
00000140: 7f55 67be 9035 3abe e66e 6cbe ef19 38be
00000150: 047d 6abe 4aae 77be 8b27 10be 699d 2bbe
00000160: 4445 45be d5c2 3fbe da23 81be c6d7 16be
00000170: 7ef1 12be 02e0 3bbe e1a2 52be 6619 47be
00000180: 674f 52be a1de 6cbe 5d63 4dbe c72c 77be
00000190: 0c31 98be d6e0 91be 681f 4dbe a8be 86be
000001a0: 87bb 7bbe 0d14 a6be c501 9bbe b96e 76be
000001b0: fd94 fdbd 7997 19be b855 2cbe 705f f8bd
000001c0: 3425 40be 161a 17be 2e37 5cbe 92e7 31be
000001d0: 02fe 4bbe fbc3 823e 351e 453e d385 143e
000001e0: 3e62 9f3d 8c14 d03d e8b8 3e3d 9430 ce3d
000001f0: f2b7 3d3d 69fb 083e 654b f83e 68af dc3e
00000200: 0c05 e23e c03d adbd 65c2 84bd 7574 3bbd
00000210: b3fb 813e 6056 783e 6865 a63e ce2f 6bbe
00000220: 2964 05be e8f8 57be 3f43 d8bd 0761 6cbd
00000230: ead5 85bd 6fa7 23be 7a2e 16be 42f7 7cbe
00000240: 1459 0cbe 40d2 c6bd d89a bcbd b3d9 4abd
00000250: 8755 6ebc d6a7 a5bd 10f4 f8bd c59e a7bd
00000260: f685 a5bd 7fd2 dabd 078b a4bd a26d 0bbe
00000270: 007d a8bd 3e5f aabd 233f 07bd e75b ebbd
00000280: 3b3e cdbd 9527 2bbe 050c 233e 10aa f73d
00000290: 41ff a83d d79b 85bd f53b f1bd 0334 b0bd
000002a0: 9b17 403e 56c8 0e3e 85d6 243e 7b65 533b
000002b0: cabb 063d 0840 0dbd 47aa bdbd 1f37 55bd
000002c0: afed 95bd dcc9 a4bd df9a 3fbd d07e 0fbb
000002d0: 22dc 20bd c923 a1bd 5f4c c2bd 04f0 64bd
000002e0: bb38 b6bd 0c15 fabd 140e 49bd e30a 7cbd
000002f0: c643 bbbd 239a 363d bb6d cf3d 3f19 d93d
00000300: d1a1 4b3b 822f 80bd 41eb fd3c 7047 93bc
00000310: eb18 44bd 4e64 453d 8a1e 91be 6187 a3be
00000320: f63c 6dbe e5a6 87be d1da aabe 75f0 8dbe
00000330: e049 87be 8c33 90be 8118 90be f75f d33d
00000340: af8b 233e 5451 f03d 1439 83bd 3dd7 31bd
00000350: 01e0 9abc 603d a63d c522 433d 34da 213e
00000360: 66aa 4fbe 41e5 1cbe 645d 43be 3eec 16be
00000370: 2cd1 45be c9ae 53be 61f2 5fbe 13b2 29be
00000380: 93ee 6abe e44c 163e ecf7 1b3e 0793 2b3e
00000390: b745 15bc 2606 513d 2e8a 783d 32fd 163e
000003a0: 0865 533e 6665 393e 48bf fcbc d89f 3dbd
000003b0: 5658 08bc 31c1 a9bc 885b f2bc 2015 0b3b
000003c0: 6843 8c3b 8c9d 48bd 1977 d4bc 1ea8 6b3d
000003d0: 96e0 443d 4da5 f93d 1b9d b1bc 2a38 5c3d
000003e0: edb1 293d 1686 cf39 0c6d 863a 20cc 803d
000003f0: e04f 7ebe 28d0 3cbe f2c0 4dbe dfef 46be

model.8.bias f4 [32]
0.016663799 -0.015420186 -0.009828876 -0.024354847 -0.04610128 0.022974476 0.0014648704 0.032854985
-0.036588237 -0.014646106 -0.053967576 -0.008964612 -0.038962916 0.03582269 0.03985957 -0.018273562
0.00026993838 0.04461072 0.05714174 -0.028083434 -0.016353447 -0.039265983 -0.05244932 0.028020907
-0.00475635 0.0037504586 -0.029802151 0.033071183 -0.010070046 0.039906766 -0.013163002 -0.0084338905
00000000: 8582 883c f3a4 7cbc 4b09 21bc d183 c7bc
00000010: b2d4 3cbd f834 bc3c e500 c03a f392 063d
00000020: 8cdd 15bd 39f6 6fbc 1b0d 5dbd 4fe0 12bc
00000030: 9497 1fbd d0ba 123d ca43 233d 70b2 95bc
00000040: 8486 8d39 bbb9 363d 750d 6a3d 3b0f e6bc
00000050: aaf7 85bc 5ed5 20bd 19d5 56bd 1a8c e53c
00000060: 28db 9bbb 41ca 753b a423 f4bc a675 073d
00000070: d6fc 24bc 4775 233d a2a9 57bc 4d2e 0abc

model.9.weight f4 [32]
1.3221394 1.0850202 0.5006017 0.9691752 0.6324981 0.58598 0.51152307 1.0046575
1.0291977 0.9746658 1.0280437 0.84932095 0.5243908 1.3595965 0.45798326 0.5907491
1.0852187 0.90061826 0.47457716 0.45492107 0.52544105 1.2923658 0.4822758 1.0453041
0.9759602 0.92820215 0.7292931 1.0171943 1.0299577 0.8926204 0.92262334 0.4798623
00000000: dd3b a93f f1e1 8a3f 6f27 003f de1b 783f
00000010: 65eb 213f c902 163f 2df3 023f 9e98 803f
00000020: c0bc 833f b383 793f f096 833f 196d 593f
00000030: 7a3e 063f 4207 ae3f c87c ea3e 553b 173f
00000040: 72e8 8a3f eb8e 663f c7fb f23e 6aeb e83e
00000050: 4e83 063f 3e6c a53f dbec f63e 86cc 853f
00000060: 87d8 793f a89e 6d3f f4b2 3a3f 6c33 823f
00000070: a7d5 833f c582 643f 0b31 6c3f 83b0 f53e

model.9.bias f4 [32]
-0.41145086 -0.33000523 -0.4337595 0.112546444 -0.41646272 -0.5178383 -0.49095446 0.18155716
0.18511285 -0.022281993 -0.15760066 -0.14527857 -0.42059463 -0.36591735 -0.41085383 -0.52339685
-0.16965833 -0.43879545 -0.49509954 -0.58335793 -0.55941546 -0.008875523 -0.36539346 -0.29005185
0.0827909 -0.22556438 -0.15383346 -0.083694905 -0.20709656 -0.15079515 0.10516222 -0.6211808
00000000: b0a9 d2be 72f6 a8be ba15 debe c07e e63d
00000010: 9a3a d5be 0d91 04bf 625e fbbe 1fea 393e
00000020: 398e 3d3e ba88 b6bc 1162 21be e8c3 14be
00000030: 2e58 d7be 8559 bbbe 6f5b d2be 56fd 05bf
00000040: eaba 2dbe cca9 e0be b07d fdbe f256 15bf
00000050: da35 0fbf a46a 11bc da14 bbbe ad81 94be
00000060: 468e a93d 59fa 66be 8586 1dbe 3c68 abbd
00000070: 1f11 54be 0b6a 1abe 4a5f d73d b405 1fbf

model.9.running_mean f4 [32]
-1.4019146 -1.2341131 -2.053711 -1.8870986 3.1055095 0.66141087 0.7452677 -2.3924487
-2.3167424 4.940974 -0.4917064 4.6858974 -2.0510252 -2.0539773 -2.1249006 1.598701
-0.059010964 -0.07911353 0.10845306 -2.2502732 0.211817 0.5638388 -0.004872745 -0.5123191
-1.7668364 -0.78398687 -2.2110562 -0.044676147 -0.23881763 -0.549167 -2.4340217 -1.1312152
00000000: f071 b3bf 6bf7 9dbf 0070 03c0 728c f1bf
00000010: abc0 4640 3952 293f ddc9 3e3f e11d 19c0
00000020: 8245 14c0 761c 9e40 f1c0 fbbe dff2 9540
00000030: ff43 03c0 5d74 03c0 5ffe 07c0 3ca2 cc3f
00000040: 7bb5 71bd 4606 a2bd a31c de3d 7a04 10c0
00000050: 8ee6 583e bd57 103f 8cab 9fbb 5827 03bf
00000060: b227 e2bf 5db3 48bf f281 0dc0 56fe 36bd
00000070: 9c8c 74be 3596 0cbf 03c7 1bc0 a9cb 90bf

model.9.running_var f4 [32]
49.59111 87.31046 40.584385 84.661934 107.69268 61.654366 38.80684 83.7458
94.670555 49.57806 36.348022 49.53838 34.259624 54.971348 40.813797 51.46382
40.290565 59.293602 34.6073 30.144741 57.50448 36.842827 39.172546 60.29201
82.93708 45.227924 45.489227 35.90399 39.541748 54.20665 89.18851 29.008266
00000000: 4c5d 4642 f59e ae42 6956 2242 e952 a942
00000010: a762 d742 129e 7642 343a 1b42 d97d a742
00000020: 5357 bd42 ef4f 4642 6064 1142 4d27 4642
00000030: db09 0942 a9e2 5b42 5441 2342 f4da 4d42
00000040: 8a29 2142 a62c 6d42 e06d 0a42 6e28 f141
00000050: 9604 6642 0e5f 1342 b0b0 1c42 052b 7142
00000060: c9df a542 65e9 3442 f8f4 3542 b09d 0f42
00000070: c02a 1e42 9cd3 5842 8460 b242 ee10 e841

model.11.weight f4 [32, 32, 3, 3]
0.06685669 0.167746 0.1027812 0.05402479 0.14131296 0.059057683 -0.032263078 0.07758112
0.025162697 0.27055547 0.3441377 0.22921859 0.2967749 0.34174436 0.17767075 0.19360241
0.21443518 0.19833928 0.011021657 0.048000447 0.009954405 0.0142042665 0.03973185 0.07314274
0.024097128 0.085496634 0.026032396 0.07193436 0.16729628 0.17881893 0.19060326 0.09925665
0.1531021 0.09412883 0.08646832 0.15563051 -0.11719545 -0.15741782 -0.14640144 -0.19103444
-0.157355 -0.16234548 -0.17450035 -0.15169309 -0.16064404 -0.114248395 -0.079086475 -0.1716604
-0.07536828 -0.10850709 -0.12906791 -0.12146554 -0.15434189 -0.04146117 0.027908761 -0.009259556
-0.02159926 -0.039759837 -0.0081778625 -0.032899845 0.006421363 -0.008836388 0.019736448 0.14448532
0.16060853 0.10839952 0.19036123 0.14173926 0.11324325 0.17302601 0.2043354 0.09789071
0.25026023 0.16396767 0.17017318 0.25340176 0.23525131 0.16466975 0.16208862 0.22417167
0.16570145 -0.022647686 0.037611544 0.009785158 -0.062197957 -0.056205593 -0.055256356 -0.14034162
-0.04158495 -0.10473069 0.17089856 0.1518298 0.065584175 0.055085022 0.2132779 0.08194341
0.12780885 0.1731833 0.05278248 -0.029440198 0.004090596 -0.06275442 -0.10869314 -0.0044774157
-0.03403673 -0.02793047 -0.065565296 -0.11560836 0.12933822 0.21346964 0.120179705 0.056383427
0.18212281 0.037966754 0.006839031 0.13113448 0.03536429 -0.076788515 0.025041882 -0.107691154
-0.1474681 0.013747651 -0.05711745 -0.18800224 -0.11430168 -0.11251878 0.0016549657 -0.030588046
0.07382956 0.012863569 0.034551922 0.0060189497 0.062092155 -0.00965027 0.041964665 -0.045664225
-0.10398166 -0.113650836 -0.06339192 -0.11991693 -0.08743499 0.04590313 -0.04348426 0.0284711
0.2559636 0.27589768 0.24601567 0.22837733 0.27172408 0.2622929 0.24605632 0.26812336
0.20653865 0.296786 0.3285003 0.20737441 0.26250508 0.2789148 0.19247566 0.1864095
0.27373305 0.16655186 0.048987146 0.04193949 0.033829726 0.028662287 -0.053549554 0.011217087
0.037797805 -0.004519946 -0.0008741181 -0.075129844 -0.1580224 -0.13391301 -0.117645726 -0.08490467
-0.15343449 -0.021136802 -0.11036486 -0.006184654 -0.11800442 -0.1574658 -0.14806582 -0.10129426
-0.14358829 -0.058985393 0.0028163285 -0.023479812 -0.04571773 0.27446738 0.38118884 0.17670165
0.28275228 0.318937 0.26518086 0.28334162 0.29589364 0.21548693 0.0747077 0.06798066
0.05412284 0.08418008 0.06116107 0.06598953 0.073552 0.081073396 0.096725225 0.29888496
0.30179453 0.17850026 0.19548757 0.3553353 0.18958469 0.15833852 0.26544678 0.2217678
0.08392172 0.16135871 0.08725937 0.100583225 0.10076061 0.13411601 0.06247871 0.04246268
0.04370042 0.038316853 0.16654295 0.0007236764 0.025802977 0.18888639 0.05291789 0.025361074
0.114564575 -0.018094443 0.14893968 0.20749578 0.061993547 0.15524533 0.18233007 0.14387466
0.13530235 0.15832824 0.07445787 0.13471259 0.1892211 0.06330333 0.11771275 0.14966203
0.06935893 0.13630404 0.15449782 0.11777988 0.2736229 0.18794343 0.22941408 0.19890316
00000000: 29ec 883d 9cc5 2b3e f37e d23d 1949 5d3d
00000010: 58b4 103e 78e6 713d 4a26 04bd dae2 9e3d
00000020: 0022 ce3c 3f86 8a3e d132 b03e 47b8 6a3e
00000030: e1f2 973e 1ef9 ae3e 52ef 353e b63f 463e
00000040: e594 5b3e 7419 4b3e 2e94 343c 1e9c 443d
00000050: cd17 233c 03b9 683c ddbd 223d dccb 953d
00000060: 5767 c53c dc18 af3d e441 d53c 5252 933d
00000070: b74f 2b3e 4f1c 373e 802d 433e 1247 cb3d
00000080: ccc6 1c3e 9ec6 c03d 4d16 b13d 9b5d 1f3e
00000090: 2b04 f0bd 2332 21be 42ea 15be 889e 43be
000000a0: ab21 21be e53d 26be 38b0 32be 6f55 1bbe
000000b0: df7f 24be 10fb e9bd 17f8 a1bd bec7 2fbe
000000c0: af5a 9abd f738 debd 612a 04be edc2 f8bd
000000d0: cd0b 1ebe 30d3 29bd eaa0 e43c 65b5 17bc
000000e0: eef0 b0bc 36db 22bd 71fc 05bc fdc1 06bd
000000f0: 4c6a d23b 7fc6 10bc 55ae a13c f6f3 133e
00000100: 9076 243e 9100 de3d 0eee 423e 1924 113e
00000110: 14ec e73d bb2d 313e 4d3d 513e ed7a c83d
00000120: 1c22 803e 24e7 273e e141 2e3e e0bd 813e
00000130: b8e5 703e 309f 283e 8ffa 253e 428d 653e
00000140: a4ad 293e a487 b9bc 900e 1a3d ed51 203c
00000150: 49c3 7ebd d637 66bd 7d54 62bd b7b5 0fbe
00000160: fb54 2abd 0b7d d6bd 0800 2f3e 4579 1b3e
00000170: ff50 863d d5a0 613d 8665 5a3e f2d1 a73d
00000180: 53e0 023e f756 313e 7132 583d 922c f1bc
00000190: 680a 863b 6485 80bd 829a debd 49b7 92bb
000001a0: 196a 0bbd 71ce e4bc 1947 86bd 13c4 ecbd
000001b0: 3d71 043e c997 5a3e c720 f63d 4ff2 663d
000001c0: 677e 3a3e 0783 1b3d f319 e03b 1e48 063e
000001d0: 25da 103d 4c43 9dbd a224 cd3c 2e8d dcbd
000001e0: e101 17be d43d 613c fdf3 69bd a983 40be
000001f0: 0017 eabd 3f70 e6bd 6feb d83a c893 fabc
00000200: f433 973d b8c1 523c 5186 0d3d 9c3a c53b
00000210: 5854 7e3d 2b1c 1ebc 24e3 2b3d 690a 3bbd
00000220: 56f4 d4bd c5c1 e8bd 9fd3 81bd 0297 f5bd
00000230: 1e11 b3bd ec04 3c3d 8d1c 32bd 393c e93c
00000240: a90d 833e 7642 8d3e 88eb 7b3e bfdb 693e
00000250: 6b1f 8b3e 414b 863e 30f6 7b3e 7747 893e
00000260: de7e 533e 56f4 973e 3131 a83e f559 543e
00000270: 1167 863e eccd 8e3e 5718 453e 22e2 3e3e
00000280: bd26 8c3e 928c 2a3e bfa6 483d bec8 2b3d
00000290: 0a91 0a3d 2ccd ea3c c756 5bbd dfc7 373c
000002a0: dfd1 1a3d 0e1c 94bb 1325 65ba addd 99bd
000002b0: a0d0 21be 7e20 09be 3ef0 f0bd 80e2 adbd
000002c0: ee1d 1dbe 1627 adbc f906 e2bd a3a8 cabb
000002d0: 4dac f1bd b73e 21be 919e 17be 5d73 cfbd
000002e0: cf08 13be ab9a 71bd 2792 383b bc58 c0bc
000002f0: 8442 3bbd fd86 8c3e 2f2b c33e 47f1 343e
00000300: e8c4 903e b64b a33e c9c5 873e 2712 913e
00000310: 5f7f 973e 9ba8 5c3e 5a00 993d 7239 8b3d
00000320: e9af 5d3d 9b66 ac3d 0884 7a3d 8525 873d
00000330: 6ea2 963d cf09 a63d e017 c63d 7307 993e
00000340: d084 9a3e c6c8 363e e52d 483e 82ee b53e
00000350: 7d22 423e 7e23 223e a4e8 873e 1917 633e
00000360: 27df ab3d 383b 253e 0ab5 b23d 94fe cd3d
00000370: 945b ce3d b555 093e ade9 7f3d 59ed 2d3d
00000380: 36ff 323d 22f2 1c3d 3c8a 2a3e 1ab5 3d3a
00000390: c460 d33c 6f6b 413e 6ec0 583d 07c2 cf3c
000003a0: d5a0 ea3d cc3a 94bc a583 183e c679 543e
000003b0: f2ec 7d3d a2f8 1e3e bcb4 3a3e e153 133e
000003c0: b38c 0a3e cc20 223e 5e7d 983d 19f2 093e
000003d0: 2dc3 413e 2da5 813d 6213 f13d 0141 193e
000003e0: 0e0c 8e3d 4993 0b3e ad34 1e3e 9436 f13d
000003f0: 4d18 8c3e 3e74 403e 86eb 6a3e 45ad 4b3e

model.11.bias f4 [32]
-0.03994367 0.023846041 0.05719902 0.040638715 0.018210614 -0.021865336 0.009454598 0.030811798
-0.020912832 0.019110726 0.008754722 -0.0019427728 0.019693738 -0.057369765 0.05056247 -0.035070747
0.002795946 -0.023997407 -0.04898657 0.019136675 -0.023471313 0.0533917 0.03405773 0.018640682
0.024990518 0.040435113 0.016250528 0.023052664 0.055944316 -0.04354529 0.029080553 -0.0067784004
00000000: f99b 23bd c658 c33c 8549 6a3d c874 263d
00000010: 6d2e 953c ef1e b3bc 75e7 1a3c 0669 fc3c
00000020: 6351 abbc 198e 9c3c f76f 0f3c a3a4 feba
00000030: c354 a13c 8ffc 6abd 981a 4f3d 58a6 0fbd
00000040: 313c 373b 3696 c4bc 24a6 48bd 84c4 9c3c
00000050: e946 c0bc 41b1 5a3d 1e80 0b3d 58b4 983c
00000060: eab8 cc3c 4a9f 253d d41f 853c f1d8 bc3c
00000070: de25 653d 8c5c 32bd 573a ee3c 581d debb

model.12.weight f4 [32]
1.0920322 1.0987433 1.6269765 1.0084373 0.9359037 0.6721793 0.92687756 0.73409337
0.5695927 0.9675583 0.8792219 0.69534326 1.0443636 0.7838793 0.82383084 1.0778002
0.9333647 0.96884567 0.85267353 1.0814198 0.7175028 1.040514 0.9944155 0.8021236
0.8424052 0.6301441 0.85669607 1.0637385 0.9919234 0.9012344 1.0039121 1.0541861
00000000: b6c7 8b3f 9fa3 8c3f c440 d03f 7914 813f
00000010: 6397 6f3f f113 2c3f d947 6d3f 8bed 3b3f
00000020: d4d0 113f e7b1 773f b014 613f 0402 323f
00000030: b5ad 853f 50ac 483f 94e6 523f 5bf5 893f
00000040: fdf0 6e3f 4506 783f d048 5a3f f76b 8a3f
00000050: 43ae 373f 902f 853f 0492 7e3f f957 4d3f
00000060: dea7 573f 2051 213f 6f50 5b3f 9528 883f
00000070: b1ee 7d3f 4cb7 663f 3180 803f 92ef 863f

model.12.bias f4 [32]
-0.27331161 -0.10022166 -0.16062067 0.01153978 -0.20550124 -0.34646845 -0.0055302964 -0.17349301
-0.15023546 0.044573404 -0.46526143 -0.1761973 -0.15663415 -0.046987697 0.02107553 -0.08018321
-0.24724269 0.009086185 0.10100704 -0.29732025 -0.26114902 -0.12008601 -0.37708163 0.07258552
0.050693404 -0.14403245 -0.24417764 0.2796429 -0.14496484 -0.43018815 -0.07974212 -0.096872896
00000000: 80ef 8bbe 0441 cdbd bf79 24be 5811 3d3c
00000010: eb6e 52be 5064 b1be 7d37 b5bb 27a8 31be
00000020: 53d7 19be 9a92 363d bf36 eebe 116d 34be
00000030: b464 20be 2c76 40bd 97a6 ac3c 1837 a4bd
00000040: 302d 7dbe 39de 143c c7dc ce3d 5c3a 98be
00000050: 53b5 85be a7ef f5bd d810 c1be b8a7 943d
00000060: e3a3 4f3d 3e7d 13be b409 7abe 5b2d 8f3e
00000070: aa71 14be 9f41 dcbe d64f a3bd 4c65 c6bd
