experiments/gan_modified_srgan/saved_models/discriminator_0.pth (torch_old, 427594 bytes, 45 tensors)

model.0.weight f4 [64, 3, 3, 3]
0.2721203 -0.14724249 0.20297004 -0.20101938 -0.15349872 0.10593019 -0.100227125 -0.26163557
0.30012992 0.2085369 0.13996913 0.0164799 -0.02756165 -0.12627812 -0.033508282 -0.163529
0.044392657 0.18062554 -0.07169811 -0.033151675 0.14038864 -0.17178698 0.13184257 0.123948716
-0.24543828 -0.24159874 0.3230716 -0.034702297 -0.106320076 0.06464296 -0.09089252 -0.11245127
0.24579655 0.14238697 0.12917916 0.1506368 0.09574683 -0.054468002 -0.054725196 -0.15723976
0.015498691 0.01635466 0.18755615 0.050198726 0.056758948 -0.15619059 0.19842893 0.037683975
0.15041316 0.13309534 -0.079827875 0.06731601 -0.044323184 -0.037860036 0.041119184 -0.06399082
-0.19275166 0.12134886 0.109067656 0.067683645 -0.19275321 0.0340907 -0.16850732 -0.101075664
-0.093471475 -0.13898082 -0.05455685 -0.119464636 0.16278416 -0.03172854 0.07230897 0.047075197
0.09331761 0.046509415 -0.20386462 0.093408816 -0.044504598 -0.08727016 -0.07831653 0.0107827345
0.070115864 -0.058964435 0.0685477 0.08904788 -0.16302599 -0.19074087 -0.10143623 0.15390384
0.35836548 -0.112890854 0.14080632 -0.07662499 0.21128501 0.06851636 -0.12631649 -0.14514995
-0.19955705 0.27671728 -0.03203315 -0.1936225 0.18178225 -0.16783303 -0.11574923 0.07811594
-0.17580067 0.056175955 0.24782035 0.014183236 0.15425026 0.12805295 -0.24150458 0.18325616
0.09831175 -0.020623697 -0.25960913 -0.013066531 0.072722495 -0.03679657 -0.18342106 -0.16075861
0.01289028 0.12887943 -0.03460415 -0.052253064 0.11685599 -0.052133944 0.17124419 -0.13199738
-0.1036385 0.18388075 0.031918496 0.16744354 -0.2801564 -0.022153445 0.04790969 0.09194662
0.01313742 -0.089949206 0.112524666 0.31657818 0.3168156 -0.33952096 -0.19760267 -0.23591791
0.18408027 -0.34104085 -0.13974543 0.026877219 0.36359695 0.26936233 -0.16650489 0.050725073
-0.113698356 0.12398947 -0.2133939 -0.070741 0.18653901 0.13257028 0.21161312 -0.32218555
-0.14652921 -0.083484896 -0.041045718 -0.045317527 -0.09334382 -0.10767883 0.1913715 0.18504629
-0.15931916 -0.14360617 0.13065648 0.04826778 -0.033626612 -0.2242415 -0.010950956 -0.011520637
0.092671655 -0.22327417 -0.18900666 -0.027060706 0.13424486 -0.1546645 -0.12153577 0.07983835
0.1604959 -0.029989148 -0.25174013 0.0052941595 0.10706759 0.150533 0.09761522 -0.026849318
-0.01675365 -0.18107623 -0.0055438597 -0.089484945 0.013517309 0.19090015 0.1847718 -0.1094595
0.16910511 -0.0952381 -0.16496202 -0.1270375 -0.07151342 -0.109982945 0.09248312 -0.22269325
0.09067898 0.11529516 -0.050386637 0.01330243 -0.0014360761 -0.05051043 0.055910207 0.07832011
-0.13084318 -0.20165661 0.0876848 0.059287544 -0.12751046 0.04346069 0.14162119 -0.13792169
0.30891472 -0.016856626 -0.06426799 0.06770508 0.041928805 -0.28222504 0.039955575 0.12698646
-0.023885375 -0.04661923 0.15460502 0.055799164 0.28808188 -0.083590984 -0.23701158 -0.030465307
-0.030183718 -0.26046696 0.083736345 0.10950828 0.3027175 0.14636603 0.041186914 0.053364757
-0.10123053 -0.124224275 -0.25311092 -0.18175404 -0.061791528 -0.026506066 0.12224757 0.2074582
00000000: 5a53 8b3e bcc6 16be 61d7 4f3e 06d8 4dbe
00000010: c52e 1dbe edf1 d83d e143 cdbd 19f5 85be
00000020: a1aa 993e b28a 553e 1154 0f3e db00 873c
00000030: f8c8 e1bc 0d4f 01be fb3f 09bd 2574 27be
00000040: 13d5 353d e7f5 383e 75d6 92bd 0dca 07bd
00000050: 0ac2 0f3e ede8 2fbe bd01 073e d3d8 fd3d
00000060: 2c54 7bbe a965 77be a469 a53e ff23 0ebd
00000070: 57be d9bd 8763 843d dc25 babd da4c e6bd
00000080: 17b2 7b3e e4cd 113e 8b47 043e 8940 1a3e
00000090: ea16 c43d d719 5fbd 8727 60bd 7603 21be
000000a0: 39ee 7d3c 35fa 853c b80e 403e 2e9d 4d3d
000000b0: 127c 683d 6df0 1fbe f430 4b3e 835a 1a3d
000000c0: e805 1a3e 254a 083e cc7c a3bd fadc 893d
000000d0: 3a8c 35bd 2013 1bbd 976c 283d 9e0d 83bd
000000e0: b160 45be c085 f83d dd5e df3d b99d 8a3d
000000f0: 1961 45be b1a2 0b3d 2f8d 2cbe c200 cfbd
00000100: f96d bfbd fd50 0ebe 0177 5fbd e0a9 f4bd
00000110: e4b0 263e c9f5 01bd ba16 943d ecd1 403d
00000120: 4e1d bf3d a880 3e3d e3c1 50be 1f4d bf3d
00000130: 744a 36bd b3ba b2bd 6b64 a0bd 11aa 303c
00000140: e898 8f3d b184 71bd bd62 8c3d bc5e b63d
00000150: 49f0 26be 9351 43be ccbd cfbd f898 1d3e
00000160: ae7b b73e 5233 e7bd 882f 103e 90ed 9cbd
00000170: 195b 583e 4e52 8c3d 1c59 01be 30a2 14be
00000180: af58 4cbe e3ad 8d3e 3135 03bd fa44 46be
00000190: 2025 3a3e 6cdc 2bbe ef0d edbd 40fb 9f3d
000001a0: 1705 34be c218 663d 9ec4 7d3e ce60 683c
000001b0: c8f3 1d3e 5020 033e fa4c 77be 81a7 3b3e
000001c0: ac57 c93d 07f3 a8bc 7deb 84be 0115 56bc
000001d0: 88ef 943d 00b8 16bd bbd2 3bbe e89d 24be
000001e0: c131 533c f8f8 033e 15bd 0dbd 4f07 56bd
000001f0: 3152 ef3d 678a 55bd a35a 2f3e 522a 07be
00000200: 6c40 d4bd 3c4b 3c3e f8bc 023d 5276 2b3e
00000210: a970 8fbe 247b b5bc f33c 443d 824e bc3d
00000220: 553e 573c 4a37 b8bd 5573 e63d 8916 a23e
00000230: a835 a23e b1d5 adbe 5b58 4abe 7794 71be
00000240: 8a7f 3c3e e89c aebe 6d19 0fbe 9d2d dc3c
00000250: 6129 ba3e dce9 893e 4280 2abe 18c5 4f3d
00000260: afda e8bd 31ee fd3d ee83 5abe a8e0 90bd
00000270: 1504 3f3e 81c0 073e 1cb1 583e 81f5 a4be
00000280: c10b 16be 21fa aabd 8e1f 28bd df9e 39bd
00000290: 0b2b bfbd b886 dcbd e4f6 433e c67c 3d3e
000002a0: 9024 23be 7f0d 13be d0ca 053e 70b4 453d
000002b0: 0fbc 09bd 909f 65be a36b 33bc 0ec1 3cbc
000002c0: a3ca bd3d fca1 64be f68a 41be 6aae ddbc
000002d0: 7c77 093e 5f60 1ebe bfe7 f8bd 4a82 a33d
000002e0: 0a59 243e cdab f5bc 15e4 80be a17a ad3b
000002f0: 4146 db3d 5325 1a3e 7dea c73d 1af3 dbbc
00000300: f33e 89bc 0c6c 39be 44a9 b5bb e243 b7bd
00000310: b477 5d3c 547b 433e d234 3d3e 4d2c e0bd
00000320: e429 2d3e 310c c3bd ceeb 28be 1e16 02be
00000330: a175 92bd bd3e e1bd ca67 bd3d b309 64be
00000340: e7b5 b93d de1f ec3d 3862 4ebd 6ff2 593c
00000350: b83a bcba 06e4 4ebd 1a02 653d 4b66 a03d
00000360: c1fb 05be 127f 4ebe 1794 b33d 7fd7 723d
00000370: 1a92 02be d603 323d 2505 113e 583b 0dbe
00000380: 122a 9e3e e816 8abc f09e 83bd f6a8 8a3d
00000390: 8abd 2b3d cd7f 90be 75a8 233d bd08 023e
000003a0: 43ab c3bc cef3 3ebd c750 1e3e aa8d 643d
000003b0: 787f 933e c031 abbd 2ab3 72be 6192 f9bc
000003c0: d843 f7bc ed5b 85be f67d ab3d e145 e03d
000003d0: cafd 9a3e fae0 153e 9cb3 283d 0195 5a3d
000003e0: f451 cfbd 4c69 febd c197 81be bb1d 3abe
000003f0: 1d19 7dbd 4023 d9bc ef5c fa3d ec6f 543e

model.0.bias f4 [64]
-0.055688977 -0.74637705 0.18277664 -0.39298928 -0.1604651 -0.31172696 -0.2457265 -0.48264083
-0.16688904 0.148814 -0.41177648 -0.1804066 0.17875645 -0.23821071 -0.29129273 -0.24531193
-0.19822381 -0.17528084 -0.2022437 -0.089432955 0.090642884 -0.21175091 -0.40131235 -0.120744236
-0.32560176 -0.2759131 -0.15754572 -0.17620677 -0.3235032 -0.10765731 -0.08505436 -0.3382685
-0.022318467 -0.32440266 -0.28153476 -0.21684298 -0.32392633 -0.1437869 -0.29689127 -0.17273796
-0.15757817 -0.11993471 -0.3843231 0.041500546 0.45790574 -0.33257836 -0.10706361 -0.33388644
-0.15764421 -0.3026155 -0.2988886 -0.20804387 -0.2025156 -0.31914788 -0.23505642 -0.20293456
0.09781119 -0.04551528 -0.45334628 -0.030041507 0.028318644 -0.38440052 -0.33863795 -0.32795724
00000000: 201a 64bd 9112 3fbf cd29 3b3e e435 c9be
00000010: f750 24be ad9a 9fbe ba9f 7bbe b31c f7be
00000020: f6e4 2abe b262 183e 5ed4 d2be 82bc 38be
00000030: ee0b 373e 82ed 73be 5224 95be 0d33 7bbe
00000040: 2ffb 4abe d27c 33be f918 4fbe a028 b7bd
00000050: faa2 b93d 3bd5 58be d078 cdbe c148 f7bd
00000060: 46b5 a6be 7b44 8dbe aa53 21be 8c6f 34be
00000070: 36a2 a5be 707b dcbd fb30 aebd 8731 adbe
00000080: 38d5 b6bc 1b18 a6be 5325 90be 160c 5ebe
00000090: acd9 a5be e03c 13be 2202 98be 38e2 30be
000000a0: 2c5c 21be 54a0 f5bd ffc5 c4be 7afc 293d
000000b0: 9f72 ea3e b647 aabe 2a44 dbbd 2af3 aabe
000000c0: 7c6d 21be 6bf0 9abe ed07 99be 7409 55be
000000d0: 4060 4fbe 5a67 a3be a1b2 70be 14ce 4fbe
000000e0: 3c51 c83d 3b6e 3abd 011d e8be 9b19 f6bc
000000f0: 80fc e73c 25d0 c4be f461 adbe 03ea a7be

model.2.weight f4 [64, 64, 3, 3]
-0.05430763 -0.0063183424 -0.011800884 0.008670568 -0.0015708293 0.011750105 0.008343151 -0.002600448
-0.0063244523 -0.030673753 -0.023216227 -0.013553362 -0.01831277 -0.012104077 -0.018954897 -0.039419126
-0.050253525 -0.044747077 0.040552054 0.049143612 0.03572299 -0.028798064 -0.011332128 -0.003931224
-0.0031095182 -0.04567333 0.018147713 -0.21730337 -0.17334041 -0.15172412 -0.05723493 -0.04246498
-0.084693596 -0.09357513 -0.10597765 -0.121830545 -0.012366862 0.03190993 0.063703306 0.012317999
0.023312148 -0.020706328 0.026726782 0.03222739 0.015762001 -0.34579977 -0.3835586 -0.31671482
-0.43250543 -0.41195968 -0.3641301 -0.44946027 -0.4684467 -0.44170037 7.796211e-05 -0.0119326515
-0.039627347 -0.047781058 -0.054238867 -0.10313636 -0.044767864 -0.13719818 -0.06687577 -0.038400505
-0.044018723 -0.00582988 0.03895005 0.020265762 0.061354984 0.017757103 0.03884999 -0.0067309598
0.0066316593 0.02523507 0.026917037 0.10867637 0.048344444 0.11426382 0.06458063 0.059381347
0.071027845 0.1222179 0.08773971 0.0988686 0.013352263 -0.0016128338 0.0116139315 -0.0612652
-0.10870534 -0.090618975 0.03251655 -0.02674324 0.023388151 -0.086647145 -0.06471361 -0.042385127
-0.120856695 -0.08828773 -0.09514143 -0.066233605 -0.047634915 -0.022068959 -0.011899642 -0.0597596
-0.049186647 -0.014985248 -0.058169317 -0.008340446 0.1511243 0.17523234 0.10106199 0.14949708
0.120354176 0.15210095 0.005600239 0.028813077 0.08368518 0.019480405 0.06124109 0.023552949
-0.05167066 0.031150533 0.04127598 0.08462072 0.09419252 0.11293151 0.11999591 0.0984037
0.09267287 -0.078435004 -0.11864755 -0.10275786 -0.12863244 -0.17313263 -0.12190581 0.02443937
-0.022543544 -0.028075222 -0.10482567 -0.0947227 -0.096408755 -0.112508625 -0.1456897 -0.13965912
0.021024777 -0.0005282393 -0.0025003194 0.098637074 0.07455674 0.020822484 0.05626997 0.019284684
0.050634686 -0.10723517 -0.117218085 -0.07760949 -0.082510896 -0.08500325 -0.09013136 -0.12291244
-0.06775694 -0.06297371 0.0328229 0.04568578 0.07807264 0.06805759 0.021701746 0.07823494
0.044797294 0.017931085 -0.007326073 -0.007592793 -0.0063685365 -0.041511122 0.050391648 0.04510757
0.044210378 -0.020313457 -0.01535063 0.0063041006 -0.038713742 -0.050683197 -0.07940682 0.007885925
-0.0065823128 -0.010649424 -0.062204614 -0.104782656 -0.062107205 -0.13216527 -0.13214715 -0.119155414
-0.16889958 -0.21950842 -0.17412885 -0.1741515 -0.17517059 -0.16318385 -0.029700695 -0.059376318
-0.06575442 -0.061732363 -0.07097566 0.017528187 -0.017189274 -0.016956018 -0.04125401 -0.03908
-0.04941509 -0.028997263 -0.043420505 -0.051871397 -0.030555751 -0.053504564 -0.040438794 -0.08056132
0.07705646 0.08356862 0.032255847 -0.124261506 -0.09160049 -0.1244096 -0.0778645 -0.07690977
-0.07246777 -0.026707744 0.020402396 -0.0115173375 -0.060628746 0.0031390563 -0.04081734 -0.049707845
0.014892823 -0.0063368776 0.13552786 0.16647545 0.13322586 -0.03152057 -0.05585686 -0.073328614
-0.027664676 -0.009477261 -0.028261522 -0.18941921 -0.2312291 -0.12514184 -0.20169403 -0.22859117
-0.12059519 -0.18220708 -0.17474183 -0.1839501 -0.08464023 -0.06221961 -0.04635956 -0.106423624
00000000: ad71 5ebd 190a cfbb 7f58 41bc ff0e 0e3c
00000010: 49e4 cdba 8383 403c b6b1 083c 476c 2abb
00000020: 5a3d cfbb 8647 fbbc f52f bebc ec0e 5ebc
00000030: aa04 96bc 2e50 46bc 4d47 9bbc f375 21bd
00000040: a4d6 4dbd b648 37bd e919 263d d04a 493d
00000050: 4552 123d ebe9 ebbc 64aa 39bc 7fd1 80bb
00000060: 0fc9 4bbb f513 3bbd 83aa 943c c684 5ebe
00000070: 2680 31be 915d 1bbe 2d6f 6abd c2ef 2dbd
00000080: d673 adbd 51a4 bfbd cf0a d9bd 4b82 f9bd
00000090: 619e 4abc fdb3 023d e176 823d 6fd1 493c
000000a0: 1ef9 be3c 51a0 a9bc 20f2 da3c de00 043d
000000b0: 501f 813c ab0c b1be cb61 c4be 7228 a2be
000000c0: 5a71 ddbe 61ec d2be 436f babe a81f e6be
000000d0: 3fd8 efbe 8d26 e2be 977f a338 2b81 43bc
000000e0: 4950 22bd 12b6 43bd 9329 5ebd 2839 d3bd
000000f0: 825e 37bd ae7d 0cbe 2af6 88bd d949 1dbd
00000100: fa4c 34bd 9408 bfbb 168a 1f3d 6204 a63c
00000110: 5d4f 7b3d 5877 913c 2b21 1f3d 628f dcbb
00000120: 644e d93b c7b9 ce3c 1e81 dc3c b791 de3d
00000130: d304 463d 2603 ea3d d942 843d db39 733d
00000140: 0c77 913d 614d fa3d e1b0 b33d 9f7b ca3d
00000150: 73c3 5a3c b965 d3ba 5c48 3e3c 38f1 7abd
00000160: e8a0 debd 7196 b9bd 1330 053d a414 dbbc
00000170: 8298 bf3c 0f74 b1bd 9288 84bd 079c 2dbd
00000180: b783 f7bd 33d0 b4bd 83d9 c2bd 7ca5 87bd
00000190: d41c 43bd f6c9 b4bc b7f6 42bc 7bc6 74bd
000001a0: f077 49bd b084 75bc f342 6ebd 5ea6 08bc
000001b0: 54c0 1a3e 1b70 333e 97f9 ce3d c315 193e
000001c0: 407c f63d 5ac0 1b3e 3682 b73b 6709 ec3c
000001d0: 2363 ab3d 5f95 9f3c f0d7 7a3d 1df2 c03c
000001e0: 9da4 53bd 672f ff3c 0111 293d a14d ad3d
000001f0: 02e8 c03d a348 e73d 6ac0 f53d e187 c93d
00000200: 46cb bd3d 88a2 a0bd 7dfd f2bd b772 d2bd
00000210: 39b8 03be ae49 31be c1a9 f9bd 1335 c83c
00000220: 3dad b8bc 02fe e5bc d7ae d6bd fafd c1bd
00000230: f471 c5bd ec6a e6bd ae2f 15be cd02 0fbe
00000240: 273c ac3c 8a79 0aba 66dc 23bb 3c02 ca3d
00000250: 34b1 983d ea93 aa3c 577b 663d eafa 9d3c
00000260: 5166 4f3d 1d9e dbbd 0910 f0bd b9f1 9ebd
00000270: 79fb a8bd 2f16 aebd ca96 b8bd 84b9 fbbd
00000280: 27c4 8abd 5cf8 80bd 4e71 063d 0321 3b3d
00000290: 8ce4 9f3d c761 8b3d dcc7 b13c a439 a03d
000002a0: 5e7d 373d 36e4 923c 8e0f f0bb f7cc f8bb
000002b0: 28af d0bb 9107 2abd 7967 4e3d b7c2 383d
000002c0: f115 353d 6868 a6bc 3581 7bbc a192 ce3b
000002d0: 4d92 1ebd 2f99 4fbd 0ba0 a2bd f733 013c
000002e0: 71b0 d7bb ec7a 2ebc 44ca 7ebd 4a98 d6bd
000002f0: 2064 7ebd 5556 07be 9551 07be c107 f4bd
00000300: 03f4 2cbe d1c6 60be d54e 32be c554 32be
00000310: eb5f 33be ab19 27be df4e f3bc 9534 73bd
00000320: 41aa 86bd 13db 7cbd b05b 91bd 4697 8f3c
00000330: 85d0 8cbc 59e7 8abc f7f9 28bd 5a12 20bd
00000340: 7a67 4abd ab8b edbc b3d9 31bd 1a77 54bd
00000350: 0e50 fabc 9a27 5bbd 26a3 25bd 55fd a4bd
00000360: c7cf 9d3d 0626 ab3d b51e 043d d17c febd
00000370: 0a99 bbbd 76ca febd 6c77 9fbd df82 9dbd
00000380: fb69 94bd 33ca dabc ed22 a73c 37b3 3cbc
00000390: d955 78bd a0b8 4d3b 1530 27bd 749a 4bbd
000003a0: 0701 743c 95a5 cfbb d1c7 0a3e 8a78 2a3e
000003b0: 5c6c 083e b71b 01bd 2aca 64bd 502d 96bd
000003c0: 08a1 e2bc 8446 1bbc b584 e7bc 1cf7 41be
000003d0: 52c7 6cbe 2f25 00be e188 4ebe ce13 6abe
000003e0: 9cfa f6bd 7e94 3abe 86ef 32be 6a5d 3cbe
000003f0: db57 adbd fdd9 7ebd 86e3 3dbd a1f4 d9bd

model.2.bias f4 [64]
0.02291272 0.037632115 0.0015080103 -0.024531677 -0.005927335 0.032952156 0.0046055946 -0.027468301
-0.011621676 -0.025711427 0.03504151 -0.021436216 0.06736462 -0.008162668 -0.009397777 -0.018259095
0.0034214456 -0.013643299 0.005513391 0.024749367 0.014890888 0.029355455 -0.021075651 0.034058843
-0.016469691 0.008203058 -0.02409116 -0.0072095287 -0.018549588 0.0009834198 0.057755496 -0.017240481
-0.025041616 -0.0024194892 0.0040780143 -0.040606856 0.014101116 0.004609932 0.039775804 -0.014316053
0.02027446 0.035536572 0.036613394 0.04057177 -0.027610322 -0.0137732355 -0.037963033 -0.019966975
0.026278188 0.043922525 -0.059786823 0.02170461 -0.0044956333 -0.0069122543 -0.007887696 -0.032069534
0.009787805 -0.0009593889 -0.032941744 0.002502472 -0.025472507 0.0055837035 0.033689614 0.030472545
00000000: 75b3 bb3c 2224 1a3d 6ea8 c53a a8f6 c8bc
00000010: 173a c2bb d7f8 063d 87ea 963b 3405 e1bc
00000020: d868 3ebc c5a0 d2bc b087 0f3d 019b afbc
00000030: 76f6 893d b6bc 05bc 22f9 19bc 1994 95bc
00000040: 553a 603b 2588 5fbc ada9 b43b 2fbf ca3c
00000050: e9f8 733c da7a f03c d8a6 acbc 4981 0b3d
00000060: 72eb 86bc 1e66 063c d35a c5bc e93d ecbb
00000070: 4ef5 97bc 18e6 803a 0791 6c3d e93b 8dbc
00000080: 1324 cdbc 4b90 1ebb dda0 853b 6053 26bd
00000090: 5e08 673c ea0e 973b f4eb 223d e18d 6abc
000000a0: a016 a63c cc8e 113d edf7 153d 962e 263d
000000b0: 0b2f e2bc 23a9 61bc 207f 1bbd c891 a3bc
000000c0: 5b45 d73c 1be8 333d 07e3 74bd decd b13c
000000d0: 1b50 93bb 3180 e2bb 653b 01bc 585b 03bd
000000e0: 085d 203c 807f 7bba eced 06bd 8300 243b
000000f0: b8ab d0bc 80f7 b63b 1ffe 093d 8fa1 f93c

model.3.weight f4 [64]
0.6800058 0.78430355 0.7665565 0.6403658 0.87430865 0.7535426 1.1064677 0.76971394
0.81255853 0.6592614 0.8223429 0.90711355 1.3702165 0.56158227 0.7769091 0.7336029
0.84598845 0.88328856 0.71444523 0.7140841 0.58235896 0.4882797 0.58723354 0.8090447
0.8094043 0.92124444 0.7850629 0.92527074 0.8232182 0.7819559 1.1635166 0.45245954
0.767025 0.72024727 0.71772903 0.7495002 0.64019203 0.65379226 0.8297257 1.4204522
0.731259 0.6269988 0.92833465 0.7075107 0.63357824 0.9763597 0.487481 0.7758232
0.72903925 0.8034376 1.1597595 0.6660149 0.5636234 0.7774475 0.8396654 0.75136465
0.5162281 0.84240925 0.81030303 0.5755532 1.1383102 0.7050121 0.6477287 0.56659555
00000000: dc14 2e3f 1ec8 483f 0c3d 443f 03ef 233f
00000010: b1d2 5f3f 2be8 403f bca0 8d3f f90b 453f
00000020: d603 503f 5bc5 283f 1085 523f 9838 683f
00000030: 4163 af3f dbc3 0f3f 84e3 463f 66cd 3b3f
00000040: b392 583f 331f 623f e2e5 363f 37ce 363f
00000050: 7a15 153f ccff f93e f054 163f 8e1d 4f3f
00000060: 1f35 4f3f add6 6b3f e2f9 483f 8bde 6c3f
00000070: 6ebe 523f 432e 483f 1dee 943f c7a8 e73e
00000080: c05b 443f 2062 383f 17bd 373f 3fdf 3f3f
00000090: a0e3 233f ee5e 273f e768 543f 61d1 b53f
000000a0: ca33 3b3f fe82 203f 57a7 6d3f 6c1f 353f
000000b0: 2f32 223f b6f2 793f 1c97 f93e 599c 463f
000000c0: 51a2 3a3f 16ae 4d3f 0073 943f f47f 2a3f
000000d0: a049 103f cd06 473f 50f4 563f 6f59 403f
000000e0: 8627 043f 22a8 573f 0570 4f3f 7457 133f
000000f0: 26b4 913f ac7b 343f 8cd1 253f 680c 113f

model.3.bias f4 [64]
-0.2591766 -0.01729144 -0.28654474 -0.41385818 -0.2429686 -0.4124517 -0.27052316 -0.2566442
-0.011229395 -0.397757 -0.27481318 3.1307358e-05 -0.15767923 -0.42203084 -0.3631701 -0.15651493
-0.13122132 -0.28118467 -0.33529928 -0.3850905 -0.38331062 -0.41086337 -0.43148723 -0.33181632
-0.3972445 -0.24717306 -0.22041374 -0.12570596 -0.26779965 -0.2898474 -0.30294815 -0.43686655
-0.27639014 -0.34264636 -0.24514163 -0.36275744 -0.44301474 -0.3568607 -0.3485698 -0.1715337
-0.3126784 -0.34943652 -0.20955457 -0.24224484 -0.4101178 -0.25486982 -0.4073652 -0.1798534
-0.41960198 -0.20586744 -0.10177907 -0.06559254 -0.45169333 -0.10996186 -0.15295465 -0.21486983
-0.35490558 -0.2075396 -0.22021508 -0.43801877 -0.23042469 -0.3555836 -0.33275142 -0.28461114
00000000: ccb2 84be c7a6 8dbc feb5 92be 38e5 d3be
00000010: c3cc 78be df2c d3be 0382 8abe de66 83be
00000020: 7ffb 37bc cea6 cbbe 50b4 8cbe 0550 0338
00000030: aa76 21be 6d14 d8be 6ef1 b9be 7345 20be
00000040: e25e 06be 70f7 8fbe 59ac abbe 952a c5be
00000050: 4a41 c4be af5c d2be e5eb dcbe d4e3 a9be
00000060: a263 cbbe ef1a 7dbe 24b4 61be 10b9 00be
00000070: 091d 89be e166 94be 051c 9bbe f9ac dfbe
00000080: 0283 8dbe 586f afbe 6806 7bbe 58bb b9be
00000090: d4d2 e2be 72b6 b6be be77 b2be 88a6 2fbe
000000a0: 6217 a0be 58e9 b2be 7995 56be 080f 78be
000000b0: f6fa d1be 4c7e 82be 2c92 d0be 7d2b 38be
000000c0: 12d6 d6be eace 52be 8c71 d0bd 6255 86bd
000000d0: 5944 e7be af33 e1bd 25a0 1cbe d606 5cbe
000000e0: 2fb6 b5be 4385 54be 1080 61be ff43 e0be
000000f0: 73f4 6bbe 0e0f b6be 655e aabe 8db8 91be

model.3.running_mean f4 [64]
-2.5970616 -3.576294 0.95989245 -0.48730245 4.196661 -0.9006684 0.8614973 3.470741
-1.0128437 3.5392325 2.6247213 -3.7344868 1.3736758 -1.8618853 -0.4391049 -3.2398386
0.60957223 2.9520295 -3.9856875 -0.27143958 -2.5705056 -3.517213 -3.5289137 2.7361836
-0.97760683 3.8682098 -0.2940954 -0.26875892 -0.4249761 3.0529234 1.0702978 -3.5112367
3.0315745 -2.5199585 0.93037313 -1.1749228 -1.8034617 0.20222926 2.7969115 1.9036281
2.641197 -2.4350533 2.9196327 -1.7590678 -0.80898803 4.009517 -2.2091458 -4.188071
-1.2928382 0.44060844 1.9490604 -3.2392576 -1.5726285 -3.2313292 -0.034094423 1.2691773
-3.7252977 1.9843559 1.9201585 -1.6805973 1.5538576 2.5705411 -2.1933105 -4.846907
00000000: 4236 26c0 00e2 64c0 83bb 753f b57f f9be
00000010: 0c4b 8640 3492 66bf 168b 5c3f 9f20 5e40
00000020: dda4 81bf c982 6240 6ffb 2740 d501 6fc0
00000030: 9cd4 af3f 4252 eebf 5cd2 e0be 8459 4fc0
00000040: ed0c 1c3f 0dee 3c40 8115 7fc0 21fa 8abe
00000050: 2a83 24c0 051a 61c0 b9d9 61c0 a21d 2f40
00000060: 7144 7abf c090 7740 ac93 96be c59a 89be
00000070: 7896 d9be 1963 4340 85ff 883f 1ab8 60c0
00000080: 5105 4240 0047 21c0 ef2c 6e3f df63 96bf
00000090: d5d7 e6bf 3015 4f3e 9900 3340 16aa f33f
000000a0: 5f09 2940 ead7 1bc0 43db 3a40 2229 e1bf
000000b0: d719 4fbf f74d 8040 a562 0dc0 ad04 86c0
000000c0: b97b a5bf 6e97 e13e d07a f93f ff4f 4fc0
000000d0: e44b c9bf 19ce 4ec0 98a6 0bbd 6774 a23f
000000e0: 476b 6ec0 60ff fd3f c1c7 f53f d01d d7bf
000000f0: cee4 c63f bf83 2440 335f 0cc0 dd19 9bc0

model.3.running_var f4 [64]
20.023787 23.030695 27.169043 34.56065 22.745852 28.192854 11.593889 28.337368
25.051456 28.179583 12.382103 17.555857 18.95987 34.360973 37.32978 49.767006
44.62703 44.24294 56.85932 8.086858 44.747402 45.894936 50.2052 107.93071
43.856472 31.416853 33.96216 69.68822 56.69084 30.065365 24.819809 52.63251
73.83646 30.501745 27.529432 34.541607 36.792873 21.406994 38.943344 22.369457
26.222815 47.458286 53.694416 48.50665 41.158337 65.3697 49.784195 63.060688
31.396334 53.757473 26.23224 80.47146 40.67062 61.025513 68.011246 52.17703
56.48669 15.408207 32.50072 33.307644 16.730734 77.72259 59.345196 108.04724
00000000: b730 a041 dd3e b841 335a d941 1b3e 0a42
00000010: 81f7 b541 f78a e141 9280 3941 eeb2 e241
00000020: 6269 c841 c96f e141 181d 4641 6572 8c41
00000030: d0ad 9741 a371 0942 b251 1542 6a11 4742
00000040: 1482 3242 c5f8 3042 f26f 6342 c563 0141
00000050: 57fd 3242 6a94 3742 20d2 4842 86dc d742
00000060: 076d 2f42 b755 fb41 40d9 0742 5e60 8b42
00000070: 6cc3 6242 de85 f041 f88e c641 b187 5242
00000080: 44ac 9342 9303 f441 473c dc41 9b2a 0a42
00000090: e72b 1342 8641 ab41 fcc5 1b42 a6f4 b241
000000a0: 53c8 d141 49d5 3d42 15c7 5642 cf06 4242
000000b0: 23a2 2442 49bd 8242 0423 4742 253e 7c42
000000c0: b12b fb41 a707 5742 a1db d141 63f1 a042
000000d0: b7ae 2242 201a 7442 c205 8842 47b5 5042
000000e0: 5ff2 6142 0488 7641 bd00 0242 073b 0542
000000f0: 8bd8 8541 f771 9b42 7b61 6d42 3018 d842

model.5.weight f4 [32, 64, 3, 3]
-0.053561196 -0.042305272 -0.063634925 -0.068442784 -0.038150746 -0.042215295 -0.07914839 -0.044395354
-0.077971384 0.058936935 0.11800123 0.054871142 0.12398171 0.09153435 0.08010487 0.0954126
0.13192628 0.08744941 -0.023238197 0.021579828 -0.0018569842 -0.029747 -0.02123374 -0.00030589264
-0.044516914 0.031440984 -0.01425907 -0.019008739 0.063816905 0.00020892573 0.018394068 0.015247761
0.04462833 -0.018492509 0.0068947794 0.034273766 -0.07081118 -0.08982151 -0.09163826 -0.07701898
-0.10715112 -0.087286785 -0.09251963 -0.085893825 -0.080522634 0.060588535 0.024381915 -0.008428043
0.032761652 -0.003043888 -0.018834075 -0.016136577 -0.030819284 0.016017875 -0.07966944 -0.09076275
-0.07549354 -0.13495815 -0.078325614 -0.064841144 -0.100150146 -0.15048571 -0.094067246 -0.064254865
-0.014878499 -0.023550417 -0.059698828 -0.08556552 -0.008113201 -0.01987838 -0.07594362 -0.05132288
-0.026486067 0.027102528 0.038419794 -0.011000309 -0.020233877 -0.006987014 0.006395292 0.024720121
0.023875205 0.047346108 0.04962767 -0.012317523 -0.009873903 0.031566165 0.04566536 -0.02502765
0.02464318 -0.012855833 0.004705298 0.04629355 0.0054841423 0.021760032 0.09112352 0.04735409
0.004957323 0.053838912 0.015122329 -0.028556824 -0.07497183 -0.012644821 -0.020629872 -0.067878395
-0.06860618 -0.043619864 -0.03703638 0.002648562 -0.17485994 -0.11262904 -0.14269584 -0.084522314
-0.053371206 -0.1143534 -0.14063394 -0.15461089 -0.1026605 -0.025594281 0.0061536757 0.016295968
-0.009861914 -0.009125588 0.0107069705 -0.032995503 0.024572063 -0.007154342 0.011015782 0.013280008
-0.0005362611 0.019341452 0.023892963 -0.027627911 0.0066266297 -0.016439103 0.028753733 -0.039293267
-0.08319696 -0.10001531 -0.061326507 -0.06336118 -0.09457465 -0.061597325 -0.09725374 -0.043348383
0.016687395 -0.038058124 0.034631107 0.031010788 0.059395257 -0.022054305 0.045969393 -0.01527012
0.017805088 -0.10029008 -0.09041809 -0.09653552 -0.1097876 -0.05043153 -0.12155872 -0.10955503
-0.052779112 -0.043169584 -0.011379147 0.013344076 -0.023581399 -0.040985413 -0.004689653 0.015997475
-0.0068342923 -0.0044423863 -0.062500685 -0.056856956 -0.035058875 -0.030528303 -0.018205928 -0.03444881
-0.031673748 -0.039704718 -0.02940046 -0.016846642 0.007162939 0.045652278 0.03318574 0.022108637
0.004304056 0.01882934 -0.017398745 0.025743905 0.014849894 0.05072786 0.0004481198 0.03510641
0.0023646925 -0.01814975 -0.021499986 -0.032525826 0.027534537 -0.016011316 0.078766726 0.09556411
0.040694356 0.053285543 0.10109891 0.09480497 0.0043682456 0.036152955 0.027680706 -0.058741044
-0.098761596 -0.056671113 -0.056616306 -0.0602039 -0.10454488 -0.01905042 -0.0875142 -0.06412748
-0.021008685 0.032798562 0.007469389 -0.005589373 0.02344843 -0.022669042 -0.025528792 0.034677334
0.0033406424 -0.09508938 -0.065020524 -0.086234614 -0.065004215 -0.10014842 -0.048421852 -0.02219584
-0.027102392 -0.07704685 -0.021054506 -0.005946021 0.04208145 0.019758476 0.037399966 -0.0057139914
-0.05097656 0.03428711 -0.023038013 -0.022713773 -0.025546072 -0.00976315 0.040311795 -0.0026951332
0.02828795 -0.017257977 -0.019088365 0.026801977 0.033486284 0.031480826 -0.003718775 0.0072643897
00000000: fc62 5bbd 4b48 2dbd 0753 82bd bb2b 8cbd
00000010: f543 1cbd f2e9 2cbd 8d18 a2bd e7d7 35bd
00000020: 76af 9fbd db67 713d a1aa f13d 90c0 603d
00000030: 1fea fd3d 5c76 bb3d 060e a43d ae67 c33d
00000040: af17 073e ad18 b33d 085e bebc 2ec8 b03c
00000050: 0d66 f3ba fbaf f3bc 61f2 adbc 3760 a0b9
00000060: 5e57 36bd 43c8 003d e09e 69bc 37b8 9bbc
00000070: 70b2 823d 1313 5b39 28af 963c bfd1 793c
00000080: 32cc 363d 9a7d 97bc 9aed e13b a662 0c3d
00000090: 7405 91bd 57f4 b7bd d7ac bbbd 21bc 9dbd
000000a0: 0c72 dbbd 6ac3 b2bd ef7a bdbd 1ae9 afbd
000000b0: 0de9 a4bd af2b 783d 95bc c73c c615 0abc
000000c0: 1531 063d f77b 47bb eb49 9abc db30 84bc
000000d0: b978 fcbc eb37 833c bb29 a3bd d2e1 b9bd
000000e0: 5b9c 9abd 7832 0abe 2e69 a0bd 6fcb 84bd
000000f0: 851b cdbd ed18 1abe 54a6 c0bd 0e98 83bd
00000100: f3c4 73bc ceec c0bc c286 74bd fa3c afbd
00000110: 3bed 04bc fcd7 a2bc 5488 9bbd f137 52bd
00000120: 4ff9 d8bc 1f06 de3c 135e 1d3d a43a 34bc
00000130: 84c1 a5bc 52f3 e4bb 998f d13b da81 ca3c
00000140: ef95 c33c feed 413d 6246 4b3d 70cf 49bc
00000150: 27c6 21bc 864b 013d 9a0b 3b3d c906 cdbc
00000160: 7fe0 c93c 46a1 52bc e72e 9a3b 4e9e 3d3d
00000170: 52b4 b33b 1842 b23c f89e ba3d 5df6 413d
00000180: 0a71 a23b 3186 5c3d a5c3 773c 00f0 e9bc
00000190: d58a 99bd 392c 4fbc faff a8bc d403 8bbd
000001a0: 6681 8cbd beaa 32bd 76b3 17bd 7f93 2d3b
000001b0: 7c0e 33be 0eaa e6bd dc1e 12be 091a adbd
000001c0: c49b 5abd 1e32 eabd 5802 10be 5152 1ebe
000001d0: ab3f d2bd 19ab d1bc c6a4 c93b 1f7f 853c
000001e0: de93 21bc 7e83 15bc 4a6c 2f3c 4b26 07bd
000001f0: 5a4b c93c f86e eabb 8a7b 343c 6494 593c
00000200: e093 0cba f771 9e3c 2dbb c33c ee53 e2bc
00000210: 3324 d93b 4cab 86bc f38c eb3c faf1 20bd
00000220: 2b63 aabd d4d4 ccbd 8131 7bbd 82c3 81bd
00000230: 5bb0 c1bd 7a4d 7cbd f82c c7bd 138e 31bd
00000240: 01b4 883c d6e2 1bbd 59d9 0d3d 560a fe3c
00000250: 7148 733d 3bab b4bc 674a 3c3d 872f 7abc
00000260: fadb 913c e364 cdbd 1f2d b9bd 6ab4 c5bd
00000270: 52d8 e0bd 4b91 4ebd c7f3 f8bd 635e e0bd
00000280: e92e 58bd 97d2 30bd 9a6f 3abc 1da1 5a3c
00000290: c72d c1bc 52e0 27bd a9ab 99bb 230d 833c
000002a0: 33f2 dfbb 7091 91bb 5c00 80bd d7e2 68bd
000002b0: e599 0fbd 7e16 fabc 9924 95bc 321a 0dbd
000002c0: 55bc 01bd 6aa1 22bd 3cd9 f0bc f801 8abc
000002d0: 16b7 ea3b e2fd 3a3d c5ed 073d 2c1d b53c
000002e0: 0a09 8d3b fd3f 9a3c d087 8ebc e2e4 d23c
000002f0: f84c 733c 04c8 4f3d 9ff1 ea39 bdcb 0f3d
00000300: f5f8 1a3b c9ae 94bc bd20 b0bc cd39 05bd
00000310: 1c90 e13c 2a2a 83bc 7350 a13d 1eb7 c33d
00000320: 20af 263d f141 5a3d f20c cf3d 1c29 c23d
00000330: 8023 8f3b 1f15 143d a6c2 e23c 739a 70bd
00000340: 8543 cabd f81f 68bd 80e6 67bd 5d98 76bd
00000350: a01b d6bd a00f 9cbc a53a b3bd 4555 83bd
00000360: 681a acbc c957 063d c7c1 f43b 0f27 b7bb
00000370: ec16 c03c 6db4 b9bc c221 d1bc d209 0e3d
00000380: aeee 5a3b 39be c2bd 7b29 85bd c69b b0bd
00000390: ee20 85bd 9d1a cdbd fe55 46bd 0dd4 b5bc
000003a0: d605 debc bdca 9dbd 807a acbc d7d6 c2bb
000003b0: 995d 2c3d 87dc a13c b530 193d 6f3c bbbb
000003c0: cccc 50bd a470 0c3d 37ba bcbc 3c12 babc
000003d0: ff45 d1bc 9ef5 1fbc fb1d 253d d5a0 30bb
000003e0: 22bc e73c 9a60 8dbc 345f 9cbc d28f db3c
000003f0: ea28 093d 0af2 003d b1b6 73bb 1e0a ee3b

model.5.bias f4 [32]
-0.01773253 -0.008166269 0.035918113 -0.018215243 -0.021927033 -0.014015228 0.0085414 -0.011430151
-0.0076384977 0.037617933 0.035997313 0.022893861 0.036740925 0.006035005 -0.027673509 0.038762167
0.002665885 -0.015708657 0.025538368 0.006346824 -0.027077891 -0.0030565711 -0.025541944 -0.01606434
-0.009405576 0.023196625 0.040001925 0.008141312 0.02176703 -0.0012577308 -0.0075984597 -0.02421793
00000000: d043 91bc d1cb 05bc df1e 133d 2238 95bc
00000010: 52a0 b3bc 20a0 65bc 3af1 0b3c 8745 3bbc
00000020: 5d4c fabb 4315 1a3d eb71 133d e88b bb3c
00000030: a77d 163d 4bc1 c53b 8eb3 e2bc 14c5 1e3d
00000040: 21b6 2e3b 71af 80bc d735 d13c 05f9 cf3b
00000050: 74d2 ddbc c150 48bb 573d d1bc 5d99 83bc
00000060: d819 1abc d906 be3c 0fd9 233d 2363 053c
00000070: c550 b23c 71da a4ba 80fc f8bb ae64 c6bc

model.6.weight f4 [32]
0.70898926 0.86141026 0.7926869 0.8181119 1.060683 1.0490322 1.2311985 0.79653865
0.6409246 0.80097026 0.84035486 0.9437296 0.72003174 1.3007481 0.7087355 1.0314381
0.88718784 0.72808623 0.78463453 0.8274269 0.6799029 0.8075354 0.77349937 0.89626783
0.7768324 0.66075885 1.1079936 1.2915746 0.8270757 0.92457616 1.0457948 1.1143309
00000000: 5280 353f 6285 5c3f 87ed 4a3f c86f 513f
00000010: 76c4 873f b046 863f ea97 9d3f f5e9 4b3f
00000020: a213 243f 630c 4d3f 7f21 573f 4398 713f
00000030: 0054 383f ea7e a63f b16f 353f 2a06 843f
00000040: be1e 633f dc63 3a3f cfdd 483f 40d2 533f
00000050: 1e0e 2e3f a4ba 4e3f 0e04 463f cf71 653f
00000060: 7dde 463f 7e27 293f bcd2 8d3f 5152 a53f
00000070: 3cbb 533f 06b1 6c3f 9bdc 853f 65a2 8e3f

model.6.bias f4 [32]
-0.36822572 -0.31550387 -0.3238681 -0.20182942 -0.026438393 -0.185043 -0.25714472 -0.30167168
-0.38697624 -0.45596492 -0.29317847 -0.15826976 -0.3512572 -0.16173229 -0.3003425 -0.20843291
-0.20747049 -0.40614724 -0.16188622 -0.13369882 -0.2546171 -0.23933312 -0.28955567 0.032543626
-0.33637044 -0.42985138 0.0032735518 0.12783186 -0.3214301 -0.30721816 -0.11999074 -0.13581714
00000000: 1588 bcbe b989 a1be 0ad2 a5be 5fac 4ebe
00000010: 5495 d8bc ea7b 3dbe 79a8 83be b674 9abe
00000020: c021 c6be 3c74 e9be 7d1b 96be 7811 22be
00000030: fcd7 b3be 269d 25be 7ec6 99be 706f 55be
00000040: 2573 54be 88f2 cfbe 80c5 25be 58e8 08be
00000050: 2c5d 82be be13 75be a440 94be 774c 053d
00000060: bf38 acbe 7b15 dcbe 1689 563b 5be6 023e
00000070: 7c92 a4be b34b 9dbe b5bd f5bd a613 0bbe

model.6.running_mean f4 [32]
-2.2837324 -2.1726701 -1.8968885 -2.4344146 -2.7423997 4.008261 2.4134407 1.8807135
0.67904043 1.3524255 0.070413746 -0.9639427 0.5059535 2.7889943 0.4788595 1.759857
-1.3989977 0.029091664 -2.9243855 -0.4687295 -4.248349 4.396011 2.2571797 -3.2512577
-0.33813652 -2.4614666 -1.0502733 1.9706405 1.7599653 1.7564615 5.0117054 1.9931076
00000000: ac28 12c0 070d 0bc0 3ecd f2bf 73cd 1bc0
00000010: 7a83 2fc0 ad43 8040 d075 1a40 38bb f03f
00000020: 98d5 2d3f 471c ad3f 1535 903d f3c4 76bf
00000030: 2b86 013f e27e 3240 132d f53e ff42 e13f
00000040: 5b12 b3bf a451 ee3c 2229 3bc0 50fd efbe
00000050: 7af2 87c0 1fac 8c40 a275 1040 9b14 50c0
00000060: 3b20 adbe ab88 1dc0 5b6f 86bf f33d fc3f
00000070: 8b46 e13f bbd3 e03f e45f a040 261e ff3f

model.6.running_var f4 [32]
27.189142 39.940334 39.40631 39.949253 30.125574 65.35777 8.768999 39.543343
33.90091 36.34733 40.87342 79.479675 50.914368 9.110365 10.225071 77.40729
6.917803 36.26137 47.87853 87.96851 33.142353 49.602207 81.69598 30.468712
32.598843 44.012085 74.24582 34.52394 39.37407 108.59606 64.71239 24.133316
00000000: 5d83 d941 e7c2 1f42 10a0 1d42 09cc 1f42
00000010: 2d01 f141 2eb7 8242 d24d 0c41 622c 1e42
00000020: 889a 0742 aa63 1142 627e 2342 98f5 9e42
00000030: 50a8 4b42 0ec4 1141 e499 2341 88d0 9a42
00000040: a45e dd40 a50b 1142 9d83 3f42 e1ef af42
00000050: c591 0442 a968 4642 5764 a342 ecbf f341
00000060: 3765 0242 600c 3042 dc7d 9442 8418 0a42
00000070: 0c7f 1d42 2f31 d942 be6c 8142 0811 c141

model.8.weight f4 [32, 32, 3, 3]
0.07711395 0.0213872 0.08857215 0.0043412666 0.019837597 -0.028804114 0.086734794 0.0034516181
0.08899484 0.059383195 -0.004894356 -0.032375615 -0.018211244 0.060877442 0.004606869 0.00024897384
-0.0136246625 0.013214824 0.022207947 0.014386961 0.027614629 -0.048067324 0.014856835 0.051158242
0.041649785 -0.02231262 -0.017278854 0.032595254 0.09558117 0.04548128 0.06725376 0.09856097
0.039546814 0.1015495 -0.0025388324 0.07970017 -0.124928296 -0.0680688 -0.13034137 -0.089797534
-0.07647567 -0.13219021 -0.08480314 -0.08683782 -0.07903405 0.028355556 0.014381526 0.0042369696
0.0035798703 -0.088227235 -0.014525539 -0.008129068 -0.043521717 -0.020110168 0.15242904 0.14861608
0.14225847 0.19443966 0.13315359 0.11890686 0.16437536 0.104973234 0.21768472 -0.11535509
-0.07936122 -0.118393816 -0.12995422 -0.123919696 -0.11801648 -0.06482829 -0.1589599 -0.06081587
-0.12854844 -0.07207674 -0.12034508 -0.056017965 -0.08743169 -0.022125093 -0.030595245 -0.09318817
-0.112789996 -0.08453464 -0.1284343 -0.08505138 -0.12511367 -0.1310358 -0.039688796 -0.06279223
-0.08200752 -0.08251072 -0.12875883 -0.025693437 -0.024778498 -0.08205453 -0.107538 -0.09733533
-0.074115776 -0.10255302 -0.07380288 -0.13360433 -0.19102989 -0.18311886 -0.12464803 -0.19506767
-0.17349713 -0.2285946 -0.20436577 -0.14503859 -0.025860567 -0.055497862 -0.07263779 -0.0366465
-0.10663759 -0.06577507 -0.094574295 -0.05808782 -0.08224863 0.15900311 0.11649169 0.05137879
0.08859672 0.12027188 0.05776556 0.06286977 0.025862267 0.09433004 0.09293952 0.028739044
0.057557784 -0.031307716 0.008989827 0.0030168265 0.018608855 -0.007938428 0.087509684 -0.16205958
-0.05915206 -0.14361553 -0.14658198 -0.10846879 -0.105590664 -0.102225356 -0.08061905 -0.18124779
-0.15038449 -0.120675616 -0.11549576 -0.08154637 -0.06302802 -0.117375195 -0.17251886 -0.14219913
-0.138688 -0.06744124 -0.045879576 -0.10210293 -0.044710606 -0.04770975 0.0003685264 -0.053657223
-0.045163345 -0.11130124 0.06585302 0.031186199 -0.011948886 0.06675192 0.014166091 0.045525998
0.08228314 0.038611703 0.055903282 -0.027503422 0.005044685 -0.06526458 -0.05881184 -0.011986469
-0.037824955 -0.07895899 -0.04131167 0.0004555536 0.09252191 0.07312272 0.037482165 0.09669243
0.07740049 0.030472467 0.07028794 0.076032676 0.028741568 -0.020882832 0.037983403 0.04059563
0.011319221 -0.049566403 0.036160998 -0.016082156 -0.04563776 0.048207797 -0.15194592 -0.18343925
-0.10470517 -0.12947217 -0.19675305 -0.14635696 -0.1217595 -0.13589747 -0.14382344 0.03806132
0.10177931 0.04926892 0.050311707 0.09398466 0.095476635 0.025668139 0.00046682564 0.10132187
-0.09278493 -0.046544284 -0.08507496 -0.02276042 -0.069907755 -0.08510821 -0.091730386 -0.04326631
-0.10726517 -0.034833916 -0.032651633 -0.009600558 -0.04583446 0.023279363 0.027092993 -0.04946413
0.0023811874 -0.01601005 0.047692046 0.028800547 0.07008409 0.05329491 0.0388153 0.07504729
0.095974475 0.03892878 0.066273175 0.049085256 0.058457736 0.114921734 0.017887114 0.09916596
0.081931226 0.0126162805 0.030991124 0.072852165 -0.12911679 -0.06339062 -0.08466871 -0.081434734
00000000: ebed 9d3d 3634 af3c 5165 b53d 2f41 8e3b
00000010: 7582 a23c 9bf6 ebbc 03a2 b13d 8b34 623b
00000020: ed42 b63d cb3b 733d d560 a0bb 4b9c 04bd
00000030: bf2f 95bc a05a 793d 38f5 963b b488 8239
00000040: fa39 5fbc fd82 583c 71ed b53c 4ab7 6b3c
00000050: 1338 e23c 3ee2 44bd 156a 733c 4e8b 513d
00000060: f798 2a3d f5c8 b6bc 628c 8dbc 9a82 053d
00000070: 0fc0 c33d 944a 3a3d 57bc 893d 55da c93d
00000080: d7fb 213d 2ff9 cf3d 8a62 26bb d839 a33d
00000090: 68da ffbd a867 8bbd 3578 05be c5e7 b7bd
000000a0: 479f 9cbd df5c 07be 45ad adbd 07d8 b1bd
000000b0: 9bdc a1bd e949 e83c 7ea0 6b3c 47d6 8a3b
000000c0: 429c 6a3b 7bb0 b4bd 87fc 6dbc c82f 05bc
000000d0: d443 32bd 14be a4bc 5c16 1c3e d02e 183e
000000e0: 34ac 113e 311b 473e 6a59 083e 7185 f33d
000000f0: 0452 283e 35fc d63d bee8 5e3e 4a3f ecbd
00000100: 2388 a2bd 7578 f2bd b812 05be 9cc9 fdbd
00000110: a0b2 f1bd b2c4 84bd 62c6 22be 101a 79bd
00000120: 34a2 03be f89c 93bd 7b77 f6bd 1873 65bd
00000130: 630f b3bd af3f b5bc e1a2 fabc 70d9 bebd
00000140: 71fe e6bd 7f20 adbd 4884 03be 6b2f aebd
00000150: cc1d 00be 402e 06be b890 22bd 3699 80bd
00000160: 8ff3 a7bd 61fb a8bd 5bd9 03be 0b7b d2bc
00000170: 47fc cabc 350c a8bd e23c dcbd bf57 c7bd
00000180: 03ca 97bd 5107 d2bd f725 97bd 93cf 08be
00000190: 579d 43be 8383 3bbe 7747 ffbd d2bf 47be
000001a0: 3ba9 31be b414 6abe 4345 51be ff84 14be
000001b0: 8ad9 d3bc ba51 63bd 1fc3 94bd a41a 16bd
000001c0: cf64 dabd 14b5 86bd 2bb0 c1bd 7eed 6dbd
000001d0: f871 a8bd b6d1 223e 3293 ee3d 9172 523d
000001e0: 3272 b53d 1a51 f63d 949b 6c3d dec1 803d
000001f0: 1bdd d33c 1c30 c13d 1357 be3d 256e eb3c
00000200: b6c1 6b3d 853c 00bd 114a 133c f3b5 453b
00000210: 9971 983c 2e10 02bc 4738 b33d f2f2 25be
00000220: 6e49 72bd f30f 13be 9619 16be e324 debd
00000230: eb3f d8bd 875b d1bd 9a1b a5bd 0599 39be
00000240: 64fe 19be c724 f7bd 0b89 ecbd c901 a7bd
00000250: d614 81bd 6862 f0bd c9a8 30be a69c 11be
00000260: 3a04 0ebe a21e 8abd 39ec 3bbd 571b d1bd
00000270: 7822 37bd 4c6b 43bd c736 c139 adc7 5bbd
00000280: 33fd 38bd e8f1 e3bd f3dd 863d 337a ff3c
00000290: 43c5 43bc 3bb5 883d e418 683c 7879 3a3d
000002a0: 1084 a83d 4e27 1e3d d7fa 643d db4e e1bc
000002b0: e34d a53b 70a9 85bd afe4 70bd e562 44bc
000002c0: 57ee 1abd 40b5 a1bd 6d36 29bd 5fd7 ee39
000002d0: 217c bd3d 5dc1 953d e686 193d ae06 c63d
000002e0: 2684 9e3d 65a1 f93c 20f3 8f3d 05b7 9b3d
000002f0: 7073 eb3c 7912 abbc 7c94 1b3d 9a47 263d
00000300: 4174 393c 2406 4bbd 8e1d 143d babe 83bc
00000310: a9ee 3abd 8a75 453d b697 1bbe 80d7 3bbe
00000320: aa6f d6bd 5a94 04be a279 49be 99de 15be
00000330: 0b5d f9bd b528 0bbe 7446 13be 30e6 1b3d
00000340: ac71 d03d 35ce 493d a613 4e3d 087b c03d
00000350: 4189 c33d fd45 d23c 47c0 f439 d781 cf3d
00000360: 0606 bebd 38a5 3ebd c83b aebd 0f74 babc
00000370: cc2b 8fbd 374d aebd 24dd bbbd 0438 31bd
00000380: d7ad dbbd 02ae 0ebd b8bd 05bd a94b 1dbc
00000390: eabc 3bbd 5db4 be3c 20f2 dd3c e69a 4abd
000003a0: b20d 1c3b 8227 83bc bc58 433d 20ef eb3c
000003b0: 3f88 8f3d c34b 5a3d cbfc 1e3d 65b2 993d
000003c0: 448e c43d c973 1f3d 3bba 873d 9f0d 493d
000003d0: 6171 6f3d 165c eb3d ff87 923c 8617 cb3d
000003e0: 8fcb a73d 84b4 4e3c 19e1 fd3c 8433 953d
000003f0: 3137 04be f1d2 81bd ca66 adbd 41c7 a6bd

model.8.bias f4 [32]
0.014543695 -0.015024299 -0.010162735 -0.023921901 -0.046015933 0.023607142 0.0018618989 0.03222892
-0.036851443 -0.01501338 -0.056227177 -0.009392375 -0.03920333 0.03371676 0.039645627 -0.017972507
1.8859854e-06 0.0442392 0.057428613 -0.027750023 -0.016639713 -0.031710222 -0.05203501 0.029023413
-0.005235901 0.0044581657 -0.029656352 0.035772767 -0.007775892 0.03976037 -0.012791305 -0.0084434375
00000000: ae48 6e3c 7a28 76bc 9a81 26bc ddf7 c3bc
00000010: 347b 3cbd c463 c13c f60a f43a 7902 043d
00000020: 8af1 16bd aefa 75bc 784e 66bd 7ae2 19bc
00000030: ac93 20bd 961a 0a3d 7463 223d 143b 93bc
00000040: f721 fd35 2a34 353d 443a 6b3d 0454 e3bc
00000050: 0250 88bc 94e2 01bd aa22 55bd 82c2 ed3c
00000060: ec91 abbb ce15 923b e1f1 f2bc 7786 123d
00000070: e9cc febb c5db 223d 9f92 51bc 5856 0abc

model.9.weight f4 [32]
1.0164998 1.1108975 0.7658427 0.9708928 0.7926008 0.8397624 0.7264709 1.0220845
1.0219978 1.031697 1.0398587 0.9728416 0.59252465 1.1139745 0.772807 0.8000742
1.0827562 0.92468 0.7093401 0.77379143 0.78816646 1.249612 0.7617341 1.0493321
0.9832382 0.9169916 0.837998 1.044557 1.0333768 0.9210272 0.9390683 0.7781068
00000000: aa1c 823f e431 8e3f 440e 443f 6e8c 783f
00000010: e3e7 4a3f abfa 563f fff9 393f aad3 823f
00000020: d3d0 823f a60e 843f 171a 853f 260c 793f
00000030: b2af 173f b796 8e3f aed6 453f aad1 4c3f
00000040: c197 8a3f d4b7 6c3f 5097 353f 3217 463f
00000050: 47c5 493f 49f3 9f3f 0201 433f 8450 863f
00000060: 80b5 7b3f f6bf 6a3f 0987 563f 0bb4 853f
00000070: b145 843f 70c8 6b3f c866 703f 0232 473f

model.9.bias f4 [32]
-0.24389222 -0.08254084 -0.15181915 0.09408215 -0.23332614 -0.21845962 -0.3330266 0.1712885
0.14275311 0.056781005 -0.055467468 -0.027803136 -0.40001443 -0.23182611 -0.086712904 -0.27539355
-0.08641782 -0.24719869 -0.313044 -0.30503815 -0.27428788 -0.023116989 -0.14752758 -0.122007005
0.07970294 -0.14572036 0.050712638 -0.06755644 -0.17165093 0.020855771 0.07938654 -0.36073935
00000000: e2be 79be 2c0b a9bd 7b76 1bbe 24ae c03d
00000010: 0ced 6ebe e1b3 5fbe 7682 aabe 4166 2f3e
00000020: df2d 123e 3393 683d db31 63bd 67c3 e3bc
00000030: b1ce ccbe d363 6dbe 8996 b1bd 6200 8dbe
00000040: d3fb b0bd a721 7dbe 4e47 a0be f62d 9cbe
00000050: 766f 8cbe d75f bdbc 7811 17be cfde f9bd
00000060: 4c3b a33d b837 15be 0eb8 4f3d 085b 8abd
00000070: 43c5 2fbe b9d9 aa3c 6995 a23d d4b2 b8be

model.9.running_mean f4 [32]
-0.36613756 -0.66220385 -2.4709961 -2.704126 2.1786551 0.9938386 -1.4689785 -2.7915967
-2.8903174 3.8283334 0.2541549 3.8876913 -0.66520816 -1.066388 -1.8552322 1.1450291
0.7084365 1.0604188 -1.3894079 -0.7115173 0.9871772 -0.28376427 -1.7082299 0.5401052
-2.426378 0.82844853 -1.724058 1.1909648 -0.7923708 0.13133064 -2.3303616 -0.060100883
00000000: 6276 bbbe 3186 29bf cd24 1ec0 6610 2dc0
00000010: 166f 0b40 356c 7e3f 7d07 bcbf 85a9 32c0
00000020: f6fa 38c0 6a03 7540 9720 823e efcf 7840
00000030: 154b 2abf 677f 88bf 4078 edbf 5090 923f
00000040: 185c 353f cebb 873f 1ed8 b1bf ff25 36bf
00000050: a5b7 7c3f 8d49 91be 47a7 dabf 5644 0a3f
00000060: c749 1bc0 3415 543f efad dcbf 8971 983f
00000070: d0d8 4abf 8a7b 063e a524 15c0 582c 76bd

model.9.running_var f4 [32]
15.671362 5.708675 41.779892 54.861744 43.36474 24.085394 10.508435 44.40431
54.14288 54.127575 10.05245 62.332222 12.780153 22.36036 21.812878 48.728783
18.930872 17.323574 13.351074 13.675359 40.964542 9.275995 30.414444 15.578508
53.576256 14.821652 14.759442 14.54834 15.887712 12.287559 45.807293 18.941694
00000000: e6bd 7a41 77ad b640 9c1e 2742 6d72 5b42
00000010: 7e75 2d42 e3ae c041 8d22 2841 039e 3142
00000020: 4f92 5842 a382 5842 d6d6 2041 3254 7942
00000030: 827b 4c41 04e2 b241 c680 ae41 46ea 4242
00000040: 6d72 9741 ae96 8a41 009e 5541 45ce 5a41
00000050: b1db 2342 7a6a 1441 c850 f341 9241 7941
00000060: 164e 5642 7d25 6d41 ad26 6c41 00c6 6841
00000070: 1134 7e41 d799 4441 ab3a 3742 9788 9741

model.11.weight f4 [32, 32, 3, 3]
0.02630815 0.073291905 0.07693949 0.021995792 0.04349102 0.02649578 -0.019538732 0.025596166
0.023301326 0.15985687 0.20961273 0.17013058 0.22368102 0.21955103 0.13387157 0.11580802
0.11099033 0.13570379 -0.04396557 -0.00047199146 -0.05602681 -0.041196413 -0.0060753566 0.011872779
-0.022609133 0.041357566 -0.024983592 0.026223676 0.123036005 0.1306931 0.14381883 0.054404326
0.105286926 0.0513465 0.04123367 0.11348835 -0.0051397462 -0.04382657 -0.0414506 -0.076238625
-0.039930202 -0.05504125 -0.06265612 -0.03466769 -0.05540769 -0.06589174 -0.018421752 -0.11389837
-0.024039285 -0.044272285 -0.069619805 -0.09298743 -0.11331839 -0.0046064416 -0.0023116388 -0.029189853
-0.06647302 -0.075126365 -0.02827548 -0.07628753 -0.01688424 -0.02370089 -0.008483431 0.10394712
0.118576586 0.06545326 0.14958403 0.09924202 0.07052432 0.1400775 0.16630149 0.06464579
0.18801135 0.0990812 0.10599961 0.18863103 0.16776079 0.099264264 0.10510097 0.16153617
0.109762214 -0.05512555 -0.019430213 -0.017326882 -0.059858195 -0.08162344 -0.05143391 -0.12767139
-0.039596867 -0.0912682 0.10664812 0.041270968 0.05134565 0.030551778 0.117867544 0.08385154
0.09211056 0.10252336 0.028330162 -0.023255782 -0.0065869526 -0.04391069 -0.07359087 0.010133765
0.00842538 0.008348688 -0.035094105 -0.07538242 0.005131085 0.030479468 0.010677361 -0.058544733
-0.006933106 -0.07964324 -0.068643905 -0.011399891 -0.061341908 -0.06836228 -0.019300062 -0.078064464
-0.13049503 -0.035049006 -0.035943124 -0.12500244 -0.11853379 -0.060061365 -0.04814589 -0.06733616
0.012600959 -0.040212248 0.00019759299 -0.053607464 0.023024723 -0.040154237 -0.0012734259 -0.009720789
-0.054082017 -0.070532784 -0.032593753 -0.075242266 -0.050945096 0.050862223 -0.025977585 0.03952455
0.13816996 0.1106198 0.16564111 0.15787677 0.12825483 0.20860188 0.16886261 0.152
0.13122483 0.09995595 0.072645 0.05269337 0.11742534 0.048105653 0.07118071 0.067954525
0.11219057 0.054261252 -0.004277295 -0.0007650084 -0.03469299 -0.0245665 -0.09058744 -0.049860854
-0.0070325765 -0.03976923 -0.049588695 0.029343218 -0.041813556 -0.018300826 -0.016572505 0.028145853
-0.042887785 0.06551805 -0.012308413 0.090705104 -0.06603848 -0.092124514 -0.08778493 -0.051867764
-0.080665216 -0.0029240279 0.027228445 0.013529864 -0.014233944 0.19871923 0.25524652 0.15246785
0.26107585 0.19539651 0.26669016 0.25300562 0.21275197 0.18950887 0.011911562 0.015668672
-0.028220443 0.024999077 0.016542539 -0.006951629 0.02002732 0.033869065 0.03368702 0.13191254
0.087626636 0.044843823 0.07426789 0.16387953 0.083003916 0.046997987 0.11618628 0.112835184
0.054339092 0.13498875 0.054498464 0.0714435 0.07578979 0.102979 0.036498968 0.016104752
0.01824845 -0.05870027 0.015152579 -0.05044519 -0.039035622 0.043241926 0.010060974 -0.034381088
0.011379581 -0.07059671 0.02775855 0.019992955 -0.038780574 0.048739407 -0.0034052792 0.04090956
0.035776533 -0.0133019 -0.03323945 0.07217147 0.08309319 0.040265735 0.08055711 0.03472438
0.045531917 0.0832432 0.055551108 0.065698646 0.015307586 -0.04867169 -0.05813765 -0.066726476
00000000: 3084 d73c 111a 963d 7492 9d3d 8530 b43c
00000010: a423 323d ae0d d93c b10f a0bc 0daf d13c
00000020: 6ce2 be3c 85b1 233e b8a4 563e b636 2e3e
00000030: a30c 653e fcd1 603e a115 093e c12c ed3d
00000040: e64e e33d eff5 0a3e 3e15 34bd 9f75 f7b9
00000050: 5e7c 65bd 92bd 28bd c913 c7bb 0b86 423c
00000060: ca36 b9bc 8d66 293d 64aa ccbc 09d3 d63c
00000070: 4dfa fb3d 69d4 053e 3e45 133e 12d7 5e3d
00000080: aca0 d73d b550 523d a3e4 283d 946c e83d
00000090: 516b a8bb 7d83 33bd 1bc8 29bd ff22 9cbd
000000a0: da8d 23bd ef72 61bd da51 80bd b5ff 0dbd
000000b0: 2df3 62bd 40f2 86bd 37e9 96bc 8c43 e9bd
000000c0: 09ee c4bc db56 35bd d494 8ebd 3270 bebd
000000d0: 7913 e8bd a2f1 96bb dd7e 17bb 8f1f efbc
000000e0: 0223 88bd dadb 99bd fba1 e7bc a33c 9cbd
000000f0: d150 8abc 5e28 c2bc 17fe 0abc 3ae2 d43d
00000100: 48d8 f23d 5c0c 863d 8e2c 193e 663f cb3d
00000110: 0e6f 903d 7a70 0f3e f04a 2a3e 0365 843d
00000120: 0c86 403e 16eb ca3d 5316 d93d 7e28 413e
00000130: 7cc9 2b3e 104b cb3d 2d3f d73d bd69 253e
00000140: 03cb e03d 54cb 61bd 1c2c 9fbc 1bf1 8dbc
00000150: de2d 75bd 312a a7bd 5dac 52bd 4abc 02be
00000160: 5330 22bd d2ea babd 546a da3d bf0b 293d
00000170: d14f 523d b947 fa3c 8a64 f13d 5bba ab3d
00000180: 76a4 bc3d c4f7 d13d a814 e83c e982 bebc
00000190: 5dd7 d7bb b2db 33bd cfb6 96bd 1708 263c
000001a0: 9b0a 0a3c efc8 083c d6be 0fbd 1962 9abd
000001b0: a922 a83b 14b0 f93c 19f0 2e3c 9acc 6fbd
000001c0: 1c2f e3bb ff1b a3bd 2d95 8cbd 9cc6 3abc
000001d0: a741 7bbd 8601 8cbd 2a1b 9ebc 43e0 9fbd
000001e0: 7da0 05be 8c8f 0fbd 1939 13bd a400 00be
000001f0: d8c1 f2bd e802 76bd a034 45bd 8ae7 89bd
00000200: 4174 4e3c 99b5 24bd f730 4f39 8093 5bbd
00000210: 589e bc3c c578 24bd 15e9 a6ba f243 1fbc
00000220: 1b85 5dbd 7e73 90bd 0781 05bd 9e18 9abd
00000230: ceab 50bd e854 503d f2ce d4bc 7fe4 213d
00000240: 6d7c 0d3e a28c e23d d39d 293e 73aa 213e
00000250: 3c55 033e bb9b 553e 52ea 2c3e e3a5 1b3e
00000260: cd5f 063e b5b5 cc3d e7c6 943d 01d5 573d
00000270: b27c f03d 6f0a 453d 31c7 913d be2b 8b3d
00000280: 2bc4 e53d 0c41 5e3d 8d28 8cbb d88a 48ba
00000290: 3d1a 0ebd af3f c9bc e885 b9bd e53a 4cbd
000002a0: 8771 e6bb 0fe5 22bd 841d 4bbd 3061 f03c
000002b0: b144 2bbd 9deb 95bc 10c3 87bc 2292 e63c
000002c0: 1aab 2fbd 542e 863d 3aa9 49bc 99c3 b93d
000002d0: 2f3f 87bd c7ab bcbd 96c8 b3bd 4b73 54bd
000002e0: ce33 a5bd 0ca1 3fbb 300e df3c 5dac 5d3c
000002f0: 7d35 69bc 0e7d 4b3e acaf 823e 8820 1c3e
00000300: bcab 853e 0616 483e 9d8b 883e f489 813e
00000310: a7db 593e 9d0e 423e b628 433c 965b 803c
00000320: 8f2e e7bc ddca cc3c 3884 873c 7eca e3bb
00000330: 5610 a43c 4aba 0a3d 67fb 093d 1514 073e
00000340: 9875 b33d 28ae 373d c319 983d 09d0 273e
00000350: f5fd a93d f680 403d 13f3 ed3d 2216 e73d
00000360: ab92 5e3d 7e3a 0a3e c839 5f3d f850 923d
00000370: ad37 9b3d a7e6 d23d f17f 153d 1dee 833c
00000380: c67d 953c b26f 70bd 8642 783c 9e9f 4ebd
00000390: d1e3 1fbd 721e 313d c9d6 243c 2fd3 0cbd
000003a0: 6c71 3a3c 0295 90bd e665 e33c 44c8 a33c
000003b0: 61d8 1ebd f9a2 473d 1b2b 5fbb c890 273d
000003c0: 6a8a 123d 36f0 59bc 1726 08bd a3ce 933d
000003d0: c32c aa3d afed 243d 20fb a43d 273b 0e3d
000003e0: ad7f 3a3d 697b aa3d 8f89 633d 038d 863d
000003f0: abcc 7a3c f75b 47bd bf21 6ebd e4a7 88bd

model.11.bias f4 [32]
-0.040675256 0.023631342 0.056143794 0.039569754 0.018172523 -0.02193018 0.010255787 0.030468343
-0.02068193 0.019684736 0.007923515 -0.0023459285 0.020198353 -0.057406474 0.051466167 -0.035154056
0.0032153043 -0.024962943 -0.04832181 0.018693043 -0.023764074 0.053954463 0.03460621 0.017613221
0.02509369 0.04074612 0.017287575 0.022396158 0.055382513 -0.043239497 0.029134884 -0.0049150805
00000000: 199b 26bd 8496 c13c 09f7 653d e513 223d
00000010: 8bde 943c eca6 b3bc e307 283c bf98 f93c
00000020: 276d a9bc e241 a13c a1d1 013c 26be 19bb
00000030: 0477 a53c 0d23 6bbd 30ce 523d b3fd 0fbd
00000040: dbb7 523b 167f ccbc 17ed 45bd 2722 993c
00000050: e0ac c2bc 5bff 5c3d 3ebf 0d3d 9a49 903c
00000060: 4891 cd3c 67e5 263d ac9e 8d3c 2678 b73c
00000070: c6d8 623d e61b 31bd 48ac ee3c af0e a1bb

model.12.weight f4 [32]
1.0533493 1.1407557 1.0493383 1.0499197 1.001983 0.77545106 0.9418634 0.8798883
0.8375026 0.9679235 0.8639483 0.7652838 1.1101232 0.8363589 0.8578598 1.021844
0.9516413 1.0266824 0.9537592 1.0341557 0.73032886 1.0432719 0.99472076 0.90473217
0.942948 0.7495737 0.87217045 1.0699362 0.9644342 0.9856118 1.034104 1.0682707
00000000: 26d4 863f 4804 923f b850 863f c563 863f
00000010: fb40 803f f683 463f f61d 713f 5c40 613f
00000020: 9266 563f d6c9 773f b72b 5d3f a4e9 433f
00000030: 8418 8e3f 9e1b 563f b39c 5b3f c9cb 823f
00000040: c49e 733f 546a 833f 9029 743f 375f 843f
00000050: d5f6 3a3f ef89 853f 05a6 7e3f 879c 673f
00000060: 0a65 713f 10e4 3f3f 9046 5f3f abf3 883f
00000070: 29e5 763f 0e51 7c3f 855d 843f 18bd 883f
